{"format": "graph-model", "generatedBy": "2.4.0", "convertedBy": "TensorFlow.js Converter v2.0.0", "userDefinedMetadata": {"signature": {"inputs": {"input_res_context:0": {"name": "input_res_context:0", "dtype": "DT_INT32", "tensorShape": {"dim": [{"size": "-1"}, {"size": "192"}]}}, "input_res_text:0": {"name": "input_res_text:0", "dtype": "DT_INT32", "tensorShape": {"dim": [{"size": "-1"}, {"size": "192"}]}}, "input_inp_text:0": {"name": "input_inp_text:0", "dtype": "DT_INT32", "tensorShape": {"dim": [{"size": "-1"}, {"size": "192"}]}}}, "outputs": {"Final/EncodeQuery/mul:0": {"name": "Final/EncodeQuery/mul:0", "dtype": "DT_FLOAT", "tensorShape": {"dim": [{"size": "-1"}, {"size": "100"}]}}, "Final/EncodeResult/mul:0": {"name": "Final/EncodeResult/mul:0", "dtype": "DT_FLOAT", "tensorShape": {"dim": [{"size": "-1"}, {"size": "100"}]}}}}}, "modelTopology": {"node": [{"name": "Final/EncodeQuery/mul/x", "op": "Const", "attr": {"value": {"tensor": {"dtype": "DT_FLOAT", "tensorShape": {}}}, "dtype": {"type": "DT_FLOAT"}}}, {"name": "Final/EncodeQuery/l2_normalize/Sum/reduction_indices", "op": "Const", "attr": {"dtype": {"type": "DT_INT32"}, "value": {"tensor": {"dtype": "DT_INT32", "tensorShape": {}}}}}, {"name": "Final/EncodeQuery/l2_normalize/Maximum/y", "op": "Const", "attr": {"value": {"tensor": {"dtype": "DT_FLOAT", "tensorShape": {}}}, "dtype": {"type": "DT_FLOAT"}}}, {"name": "inp_text/res_text/EncodeQuery/tanh_layer_0/dense/kernel", "op": "Const", "attr": {"value": {"tensor": {"dtype": "DT_FLOAT", "tensorShape": {"dim": [{"size": "220"}, {"size": "100"}]}}}, "dtype": {"type": "DT_FLOAT"}}}, {"name": "inp_text/res_text/EncodeQuery/tanh_layer_0/dense/bias", "op": "Const", "attr": {"dtype": {"type": "DT_FLOAT"}, "value": {"tensor": {"dtype": "DT_FLOAT", "tensorShape": {"dim": [{"size": "100"}]}}}}}, {"name": "inp_text/res_text/EncodeQuery/tanh_layer_1/dense/kernel", "op": "Const", "attr": {"value": {"tensor": {"dtype": "DT_FLOAT", "tensorShape": {"dim": [{"size": "100"}, {"size": "100"}]}}}, "dtype": {"type": "DT_FLOAT"}}}, {"name": "inp_text/res_text/EncodeQuery/tanh_layer_1/dense/bias", "op": "Const", "attr": {"dtype": {"type": "DT_FLOAT"}, "value": {"tensor": {"dtype": "DT_FLOAT", "tensorShape": {"dim": [{"size": "100"}]}}}}}, {"name": "inp_text/res_text/EncodeQuery/tanh_layer_2/dense/kernel", "op": "Const", "attr": {"dtype": {"type": "DT_FLOAT"}, "value": {"tensor": {"dtype": "DT_FLOAT", "tensorShape": {"dim": [{"size": "100"}, {"size": "100"}]}}}}}, {"name": "inp_text/res_text/EncodeQuery/tanh_layer_2/dense/bias", "op": "Const", "attr": {"dtype": {"type": "DT_FLOAT"}, "value": {"tensor": {"dtype": "DT_FLOAT", "tensorShape": {"dim": [{"size": "100"}]}}}}}, {"name": "inp_text/EncodeFeature/Transformer/reduce_all_tokens/ExpandDims/dim", "op": "Const", "attr": {"dtype": {"type": "DT_INT32"}, "value": {"tensor": {"dtype": "DT_INT32", "tensorShape": {}}}}}, {"name": "inp_text/EncodeFeature/Transformer/TransformerStack/Layer_2/TransformerLayer/FFN/conv2/Tensordot/Const", "op": "Const", "attr": {"dtype": {"type": "DT_INT32"}, "value": {"tensor": {"dtype": "DT_INT32", "tensorShape": {"dim": [{"size": "1"}]}}}}}, {"name": "inp_text/EncodeFeature/Transformer/TransformerStack/Layer_2/TransformerLayer/FFN/conv2/Tensordot/axes", "op": "Const", "attr": {"dtype": {"type": "DT_INT32"}, "value": {"tensor": {"dtype": "DT_INT32", "tensorShape": {"dim": [{"size": "1"}]}}}}}, {"name": "inp_text/EncodeFeature/Transformer/TransformerStack/Layer_2/TransformerLayer/FFN/conv2/Tensordot/GatherV2_1/axis", "op": "Const", "attr": {"value": {"tensor": {"dtype": "DT_INT32", "tensorShape": {}}}, "dtype": {"type": "DT_INT32"}}}, {"name": "inp_text/EncodeFeature/Transformer/TransformerStack/Layer_2/TransformerLayer/FFN/conv2/Tensordot/Const_1", "op": "Const", "attr": {"value": {"tensor": {"dtype": "DT_INT32", "tensorShape": {"dim": [{"size": "1"}]}}}, "dtype": {"type": "DT_INT32"}}}, {"name": "inp_text/EncodeFeature/Transformer/TransformerStack/Layer_2/TransformerLayer/FFN/conv1/Tensordot/Const", "op": "Const", "attr": {"value": {"tensor": {"dtype": "DT_INT32", "tensorShape": {"dim": [{"size": "1"}]}}}, "dtype": {"type": "DT_INT32"}}}, {"name": "inp_text/EncodeFeature/Transformer/TransformerStack/Layer_2/TransformerLayer/FFN/conv1/Tensordot/axes", "op": "Const", "attr": {"dtype": {"type": "DT_INT32"}, "value": {"tensor": {"dtype": "DT_INT32", "tensorShape": {"dim": [{"size": "1"}]}}}}}, {"name": "inp_text/EncodeFeature/Transformer/TransformerStack/Layer_2/TransformerLayer/FFN/conv1/Tensordot/GatherV2_1/axis", "op": "Const", "attr": {"value": {"tensor": {"dtype": "DT_INT32", "tensorShape": {}}}, "dtype": {"type": "DT_INT32"}}}, {"name": "inp_text/EncodeFeature/Transformer/TransformerStack/Layer_2/TransformerLayer/FFN/conv1/Tensordot/Const_1", "op": "Const", "attr": {"value": {"tensor": {"dtype": "DT_INT32", "tensorShape": {"dim": [{"size": "1"}]}}}, "dtype": {"type": "DT_INT32"}}}, {"name": "inp_text/EncodeFeature/Transformer/TransformerStack/Layer_2/TransformerLayer/FFN/layer_prepostprocess/layer_norm/Mean_1/reduction_indices", "op": "Const", "attr": {"value": {"tensor": {"dtype": "DT_INT32", "tensorShape": {"dim": [{"size": "1"}]}}}, "dtype": {"type": "DT_INT32"}}}, {"name": "inp_text/EncodeFeature/Transformer/TransformerStack/Layer_2/TransformerLayer/FFN/layer_prepostprocess/layer_norm/Const", "op": "Const", "attr": {"dtype": {"type": "DT_FLOAT"}, "value": {"tensor": {"dtype": "DT_FLOAT", "tensorShape": {}}}}}, {"name": "inp_text/EncodeFeature/Transformer/TransformerStack/Layer_2/TransformerLayer/FFN/layer_prepostprocess/layer_norm/Mean/reduction_indices", "op": "Const", "attr": {"dtype": {"type": "DT_INT32"}, "value": {"tensor": {"dtype": "DT_INT32", "tensorShape": {"dim": [{"size": "1"}]}}}}}, {"name": "inp_text/EncodeFeature/Transformer/TransformerStack/Layer_2/TransformerLayer/FFN/ExpandDims/dim", "op": "Const", "attr": {"value": {"tensor": {"dtype": "DT_INT32", "tensorShape": {}}}, "dtype": {"type": "DT_INT32"}}}, {"name": "inp_text/EncodeFeature/Transformer/TransformerStack/Layer_2/TransformerLayer/FFN/conv1/Tensordot/free", "op": "Const", "attr": {"value": {"tensor": {"dtype": "DT_INT32", "tensorShape": {"dim": [{"size": "2"}]}}}, "dtype": {"type": "DT_INT32"}}}, {"name": "inp_text/EncodeFeature/Transformer/TransformerStack/Layer_2/TransformerLayer/FFN/conv1/Tensordot/GatherV2/axis", "op": "Const", "attr": {"value": {"tensor": {"dtype": "DT_INT32", "tensorShape": {}}}, "dtype": {"type": "DT_INT32"}}}, {"name": "inp_text/EncodeFeature/Transformer/TransformerStack/Layer_2/TransformerLayer/FFN/conv1/Tensordot/Const_2", "op": "Const", "attr": {"value": {"tensor": {"dtype": "DT_INT32", "tensorShape": {"dim": [{"size": "1"}]}}}, "dtype": {"type": "DT_INT32"}}}, {"name": "inp_text/EncodeFeature/Transformer/TransformerStack/Layer_2/TransformerLayer/FFN/conv1/Tensordot/concat_1/axis", "op": "Const", "attr": {"value": {"tensor": {"dtype": "DT_INT32", "tensorShape": {}}}, "dtype": {"type": "DT_INT32"}}}, {"name": "inp_text/EncodeFeature/Transformer/TransformerStack/Layer_2/TransformerLayer/FFN/conv2/Tensordot/free", "op": "Const", "attr": {"value": {"tensor": {"dtype": "DT_INT32", "tensorShape": {"dim": [{"size": "2"}]}}}, "dtype": {"type": "DT_INT32"}}}, {"name": "inp_text/EncodeFeature/Transformer/TransformerStack/Layer_2/TransformerLayer/FFN/conv2/Tensordot/GatherV2/axis", "op": "Const", "attr": {"value": {"tensor": {"dtype": "DT_INT32", "tensorShape": {}}}, "dtype": {"type": "DT_INT32"}}}, {"name": "inp_text/EncodeFeature/Transformer/TransformerStack/Layer_2/TransformerLayer/FFN/conv2/Tensordot/Const_2", "op": "Const", "attr": {"dtype": {"type": "DT_INT32"}, "value": {"tensor": {"dtype": "DT_INT32", "tensorShape": {"dim": [{"size": "1"}]}}}}}, {"name": "inp_text/EncodeFeature/Transformer/TransformerStack/Layer_2/TransformerLayer/FFN/conv2/Tensordot/concat_1/axis", "op": "Const", "attr": {"dtype": {"type": "DT_INT32"}, "value": {"tensor": {"dtype": "DT_INT32", "tensorShape": {}}}}}, {"name": "inp_text/EncodeFeature/Transformer/TransformerStack/Layer_2/TransformerLayer/MultiheadAttention/to_3d/strided_slice/stack", "op": "Const", "attr": {"dtype": {"type": "DT_INT32"}, "value": {"tensor": {"dtype": "DT_INT32", "tensorShape": {"dim": [{"size": "1"}]}}}}}, {"name": "inp_text/EncodeFeature/Transformer/TransformerStack/Layer_2/TransformerLayer/MultiheadAttention/to_3d/strided_slice/stack_1", "op": "Const", "attr": {"value": {"tensor": {"dtype": "DT_INT32", "tensorShape": {"dim": [{"size": "1"}]}}}, "dtype": {"type": "DT_INT32"}}}, {"name": "inp_text/EncodeFeature/Transformer/TransformerStack/Layer_2/TransformerLayer/MultiheadAttention/to_3d/strided_slice/stack_2", "op": "Const", "attr": {"dtype": {"type": "DT_INT32"}, "value": {"tensor": {"dtype": "DT_INT32", "tensorShape": {"dim": [{"size": "1"}]}}}}}, {"name": "inp_text/EncodeFeature/Transformer/TransformerStack/Layer_2/TransformerLayer/MultiheadAttention/to_3d/Reshape/shape/1", "op": "Const", "attr": {"value": {"tensor": {"dtype": "DT_INT32", "tensorShape": {}}}, "dtype": {"type": "DT_INT32"}}}, {"name": "inp_text/EncodeFeature/Transformer/TransformerStack/Layer_2/TransformerLayer/MultiheadAttention/to_3d/Reshape/shape/2", "op": "Const", "attr": {"value": {"tensor": {"dtype": "DT_INT32", "tensorShape": {}}}, "dtype": {"type": "DT_INT32"}}}, {"name": "inp_text/EncodeFeature/Transformer/TransformerStack/Layer_2/TransformerLayer/MultiheadAttention/split_heads/split_last_dimension/strided_slice/stack", "op": "Const", "attr": {"value": {"tensor": {"dtype": "DT_INT32", "tensorShape": {"dim": [{"size": "1"}]}}}, "dtype": {"type": "DT_INT32"}}}, {"name": "inp_text/EncodeFeature/Transformer/TransformerStack/Layer_2/TransformerLayer/MultiheadAttention/split_heads/split_last_dimension/strided_slice/stack_1", "op": "Const", "attr": {"value": {"tensor": {"dtype": "DT_INT32", "tensorShape": {"dim": [{"size": "1"}]}}}, "dtype": {"type": "DT_INT32"}}}, {"name": "inp_text/EncodeFeature/Transformer/TransformerStack/Layer_2/TransformerLayer/MultiheadAttention/split_heads/split_last_dimension/strided_slice/stack_2", "op": "Const", "attr": {"value": {"tensor": {"dtype": "DT_INT32", "tensorShape": {"dim": [{"size": "1"}]}}}, "dtype": {"type": "DT_INT32"}}}, {"name": "inp_text/EncodeFeature/Transformer/TransformerStack/Layer_2/TransformerLayer/MultiheadAttention/split_heads/split_last_dimension/Reshape/shape/1", "op": "Const", "attr": {"dtype": {"type": "DT_INT32"}, "value": {"tensor": {"dtype": "DT_INT32", "tensorShape": {}}}}}, {"name": "inp_text/EncodeFeature/Transformer/TransformerStack/Layer_2/TransformerLayer/MultiheadAttention/split_heads/split_last_dimension/Reshape/shape/2", "op": "Const", "attr": {"dtype": {"type": "DT_INT32"}, "value": {"tensor": {"dtype": "DT_INT32", "tensorShape": {}}}}}, {"name": "inp_text/EncodeFeature/Transformer/TransformerStack/Layer_2/TransformerLayer/MultiheadAttention/split_heads/split_last_dimension/Reshape/shape/3", "op": "Const", "attr": {"value": {"tensor": {"dtype": "DT_INT32", "tensorShape": {}}}, "dtype": {"type": "DT_INT32"}}}, {"name": "inp_text/EncodeFeature/Transformer/TransformerStack/Layer_2/TransformerLayer/MultiheadAttention/split_heads/transpose/perm", "op": "Const", "attr": {"value": {"tensor": {"dtype": "DT_INT32", "tensorShape": {"dim": [{"size": "4"}]}}}, "dtype": {"type": "DT_INT32"}}}, {"name": "inp_text/EncodeFeature/Transformer/TransformerStack/Layer_2/TransformerLayer/MultiheadAttention/mul/y", "op": "Const", "attr": {"dtype": {"type": "DT_FLOAT"}, "value": {"tensor": {"dtype": "DT_FLOAT", "tensorShape": {}}}}}, {"name": "inp_text/EncodeFeature/Transformer/TransformerStack/Layer_2/TransformerLayer/MultiheadAttention/to_3d_1/strided_slice/stack", "op": "Const", "attr": {"value": {"tensor": {"dtype": "DT_INT32", "tensorShape": {"dim": [{"size": "1"}]}}}, "dtype": {"type": "DT_INT32"}}}, {"name": "inp_text/EncodeFeature/Transformer/TransformerStack/Layer_2/TransformerLayer/MultiheadAttention/to_3d_1/strided_slice/stack_1", "op": "Const", "attr": {"dtype": {"type": "DT_INT32"}, "value": {"tensor": {"dtype": "DT_INT32", "tensorShape": {"dim": [{"size": "1"}]}}}}}, {"name": "inp_text/EncodeFeature/Transformer/TransformerStack/Layer_2/TransformerLayer/MultiheadAttention/to_3d_1/strided_slice/stack_2", "op": "Const", "attr": {"dtype": {"type": "DT_INT32"}, "value": {"tensor": {"dtype": "DT_INT32", "tensorShape": {"dim": [{"size": "1"}]}}}}}, {"name": "inp_text/EncodeFeature/Transformer/TransformerStack/Layer_2/TransformerLayer/MultiheadAttention/to_3d_1/Reshape/shape/1", "op": "Const", "attr": {"dtype": {"type": "DT_INT32"}, "value": {"tensor": {"dtype": "DT_INT32", "tensorShape": {}}}}}, {"name": "inp_text/EncodeFeature/Transformer/TransformerStack/Layer_2/TransformerLayer/MultiheadAttention/to_3d_1/Reshape/shape/2", "op": "Const", "attr": {"value": {"tensor": {"dtype": "DT_INT32", "tensorShape": {}}}, "dtype": {"type": "DT_INT32"}}}, {"name": "inp_text/EncodeFeature/Transformer/TransformerStack/Layer_2/TransformerLayer/MultiheadAttention/split_heads_1/split_last_dimension/strided_slice/stack", "op": "Const", "attr": {"dtype": {"type": "DT_INT32"}, "value": {"tensor": {"dtype": "DT_INT32", "tensorShape": {"dim": [{"size": "1"}]}}}}}, {"name": "inp_text/EncodeFeature/Transformer/TransformerStack/Layer_2/TransformerLayer/MultiheadAttention/split_heads_1/split_last_dimension/strided_slice/stack_1", "op": "Const", "attr": {"value": {"tensor": {"dtype": "DT_INT32", "tensorShape": {"dim": [{"size": "1"}]}}}, "dtype": {"type": "DT_INT32"}}}, {"name": "inp_text/EncodeFeature/Transformer/TransformerStack/Layer_2/TransformerLayer/MultiheadAttention/split_heads_1/split_last_dimension/strided_slice/stack_2", "op": "Const", "attr": {"dtype": {"type": "DT_INT32"}, "value": {"tensor": {"dtype": "DT_INT32", "tensorShape": {"dim": [{"size": "1"}]}}}}}, {"name": "inp_text/EncodeFeature/Transformer/TransformerStack/Layer_2/TransformerLayer/MultiheadAttention/split_heads_1/split_last_dimension/Reshape/shape/1", "op": "Const", "attr": {"value": {"tensor": {"dtype": "DT_INT32", "tensorShape": {}}}, "dtype": {"type": "DT_INT32"}}}, {"name": "inp_text/EncodeFeature/Transformer/TransformerStack/Layer_2/TransformerLayer/MultiheadAttention/split_heads_1/split_last_dimension/Reshape/shape/2", "op": "Const", "attr": {"dtype": {"type": "DT_INT32"}, "value": {"tensor": {"dtype": "DT_INT32", "tensorShape": {}}}}}, {"name": "inp_text/EncodeFeature/Transformer/TransformerStack/Layer_2/TransformerLayer/MultiheadAttention/split_heads_1/split_last_dimension/Reshape/shape/3", "op": "Const", "attr": {"dtype": {"type": "DT_INT32"}, "value": {"tensor": {"dtype": "DT_INT32", "tensorShape": {}}}}}, {"name": "inp_text/EncodeFeature/Transformer/TransformerStack/Layer_2/TransformerLayer/MultiheadAttention/split_heads_1/transpose/perm", "op": "Const", "attr": {"dtype": {"type": "DT_INT32"}, "value": {"tensor": {"dtype": "DT_INT32", "tensorShape": {"dim": [{"size": "4"}]}}}}}, {"name": "inp_text/EncodeFeature/Transformer/TransformerStack/Layer_2/TransformerLayer/attention_bias_ignore_padding/mul/y", "op": "Const", "attr": {"dtype": {"type": "DT_FLOAT"}, "value": {"tensor": {"dtype": "DT_FLOAT", "tensorShape": {}}}}}, {"name": "inp_text/EncodeFeature/Transformer/TransformerStack/Layer_2/TransformerLayer/attention_bias_ignore_padding/ExpandDims/dim", "op": "Const", "attr": {"value": {"tensor": {"dtype": "DT_INT32", "tensorShape": {}}}, "dtype": {"type": "DT_INT32"}}}, {"name": "inp_text/EncodeFeature/Transformer/TransformerStack/Layer_2/TransformerLayer/attention_bias_ignore_padding/ExpandDims_1/dim", "op": "Const", "attr": {"dtype": {"type": "DT_INT32"}, "value": {"tensor": {"dtype": "DT_INT32", "tensorShape": {}}}}}, {"name": "inp_text/EncodeFeature/Transformer/TransformerStack/Layer_2/TransformerLayer/layer_prepostprocess/layer_norm/Mean_1/reduction_indices", "op": "Const", "attr": {"dtype": {"type": "DT_INT32"}, "value": {"tensor": {"dtype": "DT_INT32", "tensorShape": {"dim": [{"size": "1"}]}}}}}, {"name": "inp_text/EncodeFeature/Transformer/TransformerStack/Layer_2/TransformerLayer/layer_prepostprocess/layer_norm/Const", "op": "Const", "attr": {"value": {"tensor": {"dtype": "DT_FLOAT", "tensorShape": {}}}, "dtype": {"type": "DT_FLOAT"}}}, {"name": "inp_text/EncodeFeature/Transformer/TransformerStack/Layer_2/TransformerLayer/layer_prepostprocess/layer_norm/Mean/reduction_indices", "op": "Const", "attr": {"value": {"tensor": {"dtype": "DT_INT32", "tensorShape": {"dim": [{"size": "1"}]}}}, "dtype": {"type": "DT_INT32"}}}, {"name": "inp_text/EncodeFeature/Transformer/TransformerStack/Layer_2/TransformerLayer/MultiheadAttention/to_3d_2/strided_slice/stack", "op": "Const", "attr": {"value": {"tensor": {"dtype": "DT_INT32", "tensorShape": {"dim": [{"size": "1"}]}}}, "dtype": {"type": "DT_INT32"}}}, {"name": "inp_text/EncodeFeature/Transformer/TransformerStack/Layer_2/TransformerLayer/MultiheadAttention/to_3d_2/strided_slice/stack_1", "op": "Const", "attr": {"value": {"tensor": {"dtype": "DT_INT32", "tensorShape": {"dim": [{"size": "1"}]}}}, "dtype": {"type": "DT_INT32"}}}, {"name": "inp_text/EncodeFeature/Transformer/TransformerStack/Layer_2/TransformerLayer/MultiheadAttention/to_3d_2/strided_slice/stack_2", "op": "Const", "attr": {"value": {"tensor": {"dtype": "DT_INT32", "tensorShape": {"dim": [{"size": "1"}]}}}, "dtype": {"type": "DT_INT32"}}}, {"name": "inp_text/EncodeFeature/Transformer/TransformerStack/Layer_2/TransformerLayer/MultiheadAttention/to_3d_2/Reshape/shape/1", "op": "Const", "attr": {"dtype": {"type": "DT_INT32"}, "value": {"tensor": {"dtype": "DT_INT32", "tensorShape": {}}}}}, {"name": "inp_text/EncodeFeature/Transformer/TransformerStack/Layer_2/TransformerLayer/MultiheadAttention/to_3d_2/Reshape/shape/2", "op": "Const", "attr": {"value": {"tensor": {"dtype": "DT_INT32", "tensorShape": {}}}, "dtype": {"type": "DT_INT32"}}}, {"name": "inp_text/EncodeFeature/Transformer/TransformerStack/Layer_2/TransformerLayer/MultiheadAttention/split_heads_2/split_last_dimension/strided_slice/stack", "op": "Const", "attr": {"dtype": {"type": "DT_INT32"}, "value": {"tensor": {"dtype": "DT_INT32", "tensorShape": {"dim": [{"size": "1"}]}}}}}, {"name": "inp_text/EncodeFeature/Transformer/TransformerStack/Layer_2/TransformerLayer/MultiheadAttention/split_heads_2/split_last_dimension/strided_slice/stack_1", "op": "Const", "attr": {"value": {"tensor": {"dtype": "DT_INT32", "tensorShape": {"dim": [{"size": "1"}]}}}, "dtype": {"type": "DT_INT32"}}}, {"name": "inp_text/EncodeFeature/Transformer/TransformerStack/Layer_2/TransformerLayer/MultiheadAttention/split_heads_2/split_last_dimension/strided_slice/stack_2", "op": "Const", "attr": {"value": {"tensor": {"dtype": "DT_INT32", "tensorShape": {"dim": [{"size": "1"}]}}}, "dtype": {"type": "DT_INT32"}}}, {"name": "inp_text/EncodeFeature/Transformer/TransformerStack/Layer_2/TransformerLayer/MultiheadAttention/split_heads_2/split_last_dimension/Reshape/shape/1", "op": "Const", "attr": {"value": {"tensor": {"dtype": "DT_INT32", "tensorShape": {}}}, "dtype": {"type": "DT_INT32"}}}, {"name": "inp_text/EncodeFeature/Transformer/TransformerStack/Layer_2/TransformerLayer/MultiheadAttention/split_heads_2/split_last_dimension/Reshape/shape/2", "op": "Const", "attr": {"dtype": {"type": "DT_INT32"}, "value": {"tensor": {"dtype": "DT_INT32", "tensorShape": {}}}}}, {"name": "inp_text/EncodeFeature/Transformer/TransformerStack/Layer_2/TransformerLayer/MultiheadAttention/split_heads_2/split_last_dimension/Reshape/shape/3", "op": "Const", "attr": {"value": {"tensor": {"dtype": "DT_INT32", "tensorShape": {}}}, "dtype": {"type": "DT_INT32"}}}, {"name": "inp_text/EncodeFeature/Transformer/TransformerStack/Layer_2/TransformerLayer/MultiheadAttention/split_heads_2/transpose/perm", "op": "Const", "attr": {"dtype": {"type": "DT_INT32"}, "value": {"tensor": {"dtype": "DT_INT32", "tensorShape": {"dim": [{"size": "4"}]}}}}}, {"name": "inp_text/EncodeFeature/Transformer/TransformerStack/Layer_2/TransformerLayer/MultiheadAttention/combine_heads/transpose/perm", "op": "Const", "attr": {"dtype": {"type": "DT_INT32"}, "value": {"tensor": {"dtype": "DT_INT32", "tensorShape": {"dim": [{"size": "4"}]}}}}}, {"name": "inp_text/EncodeFeature/Transformer/TransformerStack/Layer_2/TransformerLayer/MultiheadAttention/to_2d/strided_slice/stack", "op": "Const", "attr": {"dtype": {"type": "DT_INT32"}, "value": {"tensor": {"dtype": "DT_INT32", "tensorShape": {"dim": [{"size": "1"}]}}}}}, {"name": "inp_text/EncodeFeature/Transformer/TransformerStack/Layer_2/TransformerLayer/MultiheadAttention/to_2d/strided_slice/stack_1", "op": "Const", "attr": {"dtype": {"type": "DT_INT32"}, "value": {"tensor": {"dtype": "DT_INT32", "tensorShape": {"dim": [{"size": "1"}]}}}}}, {"name": "inp_text/EncodeFeature/Transformer/TransformerStack/Layer_2/TransformerLayer/MultiheadAttention/to_2d/strided_slice/stack_2", "op": "Const", "attr": {"value": {"tensor": {"dtype": "DT_INT32", "tensorShape": {"dim": [{"size": "1"}]}}}, "dtype": {"type": "DT_INT32"}}}, {"name": "inp_text/EncodeFeature/Transformer/TransformerStack/Layer_2/TransformerLayer/MultiheadAttention/to_2d/mul/y", "op": "Const", "attr": {"dtype": {"type": "DT_INT32"}, "value": {"tensor": {"dtype": "DT_INT32", "tensorShape": {}}}}}, {"name": "inp_text/EncodeFeature/Transformer/TransformerStack/Layer_2/TransformerLayer/MultiheadAttention/to_2d/Reshape/shape/1", "op": "Const", "attr": {"value": {"tensor": {"dtype": "DT_INT32", "tensorShape": {}}}, "dtype": {"type": "DT_INT32"}}}, {"name": "inp_text/EncodeFeature/Transformer/TransformerStack/Layer_1/TransformerLayer/FFN/conv2/Tensordot/Const", "op": "Const", "attr": {"dtype": {"type": "DT_INT32"}, "value": {"tensor": {"dtype": "DT_INT32", "tensorShape": {"dim": [{"size": "1"}]}}}}}, {"name": "inp_text/EncodeFeature/Transformer/TransformerStack/Layer_1/TransformerLayer/FFN/conv2/Tensordot/axes", "op": "Const", "attr": {"dtype": {"type": "DT_INT32"}, "value": {"tensor": {"dtype": "DT_INT32", "tensorShape": {"dim": [{"size": "1"}]}}}}}, {"name": "inp_text/EncodeFeature/Transformer/TransformerStack/Layer_1/TransformerLayer/FFN/conv2/Tensordot/GatherV2_1/axis", "op": "Const", "attr": {"dtype": {"type": "DT_INT32"}, "value": {"tensor": {"dtype": "DT_INT32", "tensorShape": {}}}}}, {"name": "inp_text/EncodeFeature/Transformer/TransformerStack/Layer_1/TransformerLayer/FFN/conv2/Tensordot/Const_1", "op": "Const", "attr": {"dtype": {"type": "DT_INT32"}, "value": {"tensor": {"dtype": "DT_INT32", "tensorShape": {"dim": [{"size": "1"}]}}}}}, {"name": "inp_text/EncodeFeature/Transformer/TransformerStack/Layer_1/TransformerLayer/FFN/conv1/Tensordot/Const", "op": "Const", "attr": {"dtype": {"type": "DT_INT32"}, "value": {"tensor": {"dtype": "DT_INT32", "tensorShape": {"dim": [{"size": "1"}]}}}}}, {"name": "inp_text/EncodeFeature/Transformer/TransformerStack/Layer_1/TransformerLayer/FFN/conv1/Tensordot/axes", "op": "Const", "attr": {"value": {"tensor": {"dtype": "DT_INT32", "tensorShape": {"dim": [{"size": "1"}]}}}, "dtype": {"type": "DT_INT32"}}}, {"name": "inp_text/EncodeFeature/Transformer/TransformerStack/Layer_1/TransformerLayer/FFN/conv1/Tensordot/GatherV2_1/axis", "op": "Const", "attr": {"value": {"tensor": {"dtype": "DT_INT32", "tensorShape": {}}}, "dtype": {"type": "DT_INT32"}}}, {"name": "inp_text/EncodeFeature/Transformer/TransformerStack/Layer_1/TransformerLayer/FFN/conv1/Tensordot/Const_1", "op": "Const", "attr": {"dtype": {"type": "DT_INT32"}, "value": {"tensor": {"dtype": "DT_INT32", "tensorShape": {"dim": [{"size": "1"}]}}}}}, {"name": "inp_text/EncodeFeature/Transformer/TransformerStack/Layer_1/TransformerLayer/FFN/layer_prepostprocess/layer_norm/Mean_1/reduction_indices", "op": "Const", "attr": {"dtype": {"type": "DT_INT32"}, "value": {"tensor": {"dtype": "DT_INT32", "tensorShape": {"dim": [{"size": "1"}]}}}}}, {"name": "inp_text/EncodeFeature/Transformer/TransformerStack/Layer_1/TransformerLayer/FFN/layer_prepostprocess/layer_norm/Const", "op": "Const", "attr": {"value": {"tensor": {"dtype": "DT_FLOAT", "tensorShape": {}}}, "dtype": {"type": "DT_FLOAT"}}}, {"name": "inp_text/EncodeFeature/Transformer/TransformerStack/Layer_1/TransformerLayer/FFN/layer_prepostprocess/layer_norm/Mean/reduction_indices", "op": "Const", "attr": {"dtype": {"type": "DT_INT32"}, "value": {"tensor": {"dtype": "DT_INT32", "tensorShape": {"dim": [{"size": "1"}]}}}}}, {"name": "inp_text/EncodeFeature/Transformer/TransformerStack/Layer_1/TransformerLayer/FFN/ExpandDims/dim", "op": "Const", "attr": {"value": {"tensor": {"dtype": "DT_INT32", "tensorShape": {}}}, "dtype": {"type": "DT_INT32"}}}, {"name": "inp_text/EncodeFeature/Transformer/TransformerStack/Layer_1/TransformerLayer/FFN/conv1/Tensordot/free", "op": "Const", "attr": {"value": {"tensor": {"dtype": "DT_INT32", "tensorShape": {"dim": [{"size": "2"}]}}}, "dtype": {"type": "DT_INT32"}}}, {"name": "inp_text/EncodeFeature/Transformer/TransformerStack/Layer_1/TransformerLayer/FFN/conv1/Tensordot/GatherV2/axis", "op": "Const", "attr": {"dtype": {"type": "DT_INT32"}, "value": {"tensor": {"dtype": "DT_INT32", "tensorShape": {}}}}}, {"name": "inp_text/EncodeFeature/Transformer/TransformerStack/Layer_1/TransformerLayer/FFN/conv1/Tensordot/Const_2", "op": "Const", "attr": {"dtype": {"type": "DT_INT32"}, "value": {"tensor": {"dtype": "DT_INT32", "tensorShape": {"dim": [{"size": "1"}]}}}}}, {"name": "inp_text/EncodeFeature/Transformer/TransformerStack/Layer_1/TransformerLayer/FFN/conv1/Tensordot/concat_1/axis", "op": "Const", "attr": {"dtype": {"type": "DT_INT32"}, "value": {"tensor": {"dtype": "DT_INT32", "tensorShape": {}}}}}, {"name": "inp_text/EncodeFeature/Transformer/TransformerStack/Layer_1/TransformerLayer/FFN/conv2/Tensordot/free", "op": "Const", "attr": {"dtype": {"type": "DT_INT32"}, "value": {"tensor": {"dtype": "DT_INT32", "tensorShape": {"dim": [{"size": "2"}]}}}}}, {"name": "inp_text/EncodeFeature/Transformer/TransformerStack/Layer_1/TransformerLayer/FFN/conv2/Tensordot/GatherV2/axis", "op": "Const", "attr": {"dtype": {"type": "DT_INT32"}, "value": {"tensor": {"dtype": "DT_INT32", "tensorShape": {}}}}}, {"name": "inp_text/EncodeFeature/Transformer/TransformerStack/Layer_1/TransformerLayer/FFN/conv2/Tensordot/Const_2", "op": "Const", "attr": {"dtype": {"type": "DT_INT32"}, "value": {"tensor": {"dtype": "DT_INT32", "tensorShape": {"dim": [{"size": "1"}]}}}}}, {"name": "inp_text/EncodeFeature/Transformer/TransformerStack/Layer_1/TransformerLayer/FFN/conv2/Tensordot/concat_1/axis", "op": "Const", "attr": {"dtype": {"type": "DT_INT32"}, "value": {"tensor": {"dtype": "DT_INT32", "tensorShape": {}}}}}, {"name": "inp_text/EncodeFeature/Transformer/TransformerStack/Layer_1/TransformerLayer/MultiheadAttention/to_3d/strided_slice/stack", "op": "Const", "attr": {"value": {"tensor": {"dtype": "DT_INT32", "tensorShape": {"dim": [{"size": "1"}]}}}, "dtype": {"type": "DT_INT32"}}}, {"name": "inp_text/EncodeFeature/Transformer/TransformerStack/Layer_1/TransformerLayer/MultiheadAttention/to_3d/strided_slice/stack_1", "op": "Const", "attr": {"value": {"tensor": {"dtype": "DT_INT32", "tensorShape": {"dim": [{"size": "1"}]}}}, "dtype": {"type": "DT_INT32"}}}, {"name": "inp_text/EncodeFeature/Transformer/TransformerStack/Layer_1/TransformerLayer/MultiheadAttention/to_3d/strided_slice/stack_2", "op": "Const", "attr": {"value": {"tensor": {"dtype": "DT_INT32", "tensorShape": {"dim": [{"size": "1"}]}}}, "dtype": {"type": "DT_INT32"}}}, {"name": "inp_text/EncodeFeature/Transformer/TransformerStack/Layer_1/TransformerLayer/MultiheadAttention/to_3d/Reshape/shape/1", "op": "Const", "attr": {"value": {"tensor": {"dtype": "DT_INT32", "tensorShape": {}}}, "dtype": {"type": "DT_INT32"}}}, {"name": "inp_text/EncodeFeature/Transformer/TransformerStack/Layer_1/TransformerLayer/MultiheadAttention/to_3d/Reshape/shape/2", "op": "Const", "attr": {"value": {"tensor": {"dtype": "DT_INT32", "tensorShape": {}}}, "dtype": {"type": "DT_INT32"}}}, {"name": "inp_text/EncodeFeature/Transformer/TransformerStack/Layer_1/TransformerLayer/MultiheadAttention/split_heads/split_last_dimension/strided_slice/stack", "op": "Const", "attr": {"dtype": {"type": "DT_INT32"}, "value": {"tensor": {"dtype": "DT_INT32", "tensorShape": {"dim": [{"size": "1"}]}}}}}, {"name": "inp_text/EncodeFeature/Transformer/TransformerStack/Layer_1/TransformerLayer/MultiheadAttention/split_heads/split_last_dimension/strided_slice/stack_1", "op": "Const", "attr": {"value": {"tensor": {"dtype": "DT_INT32", "tensorShape": {"dim": [{"size": "1"}]}}}, "dtype": {"type": "DT_INT32"}}}, {"name": "inp_text/EncodeFeature/Transformer/TransformerStack/Layer_1/TransformerLayer/MultiheadAttention/split_heads/split_last_dimension/strided_slice/stack_2", "op": "Const", "attr": {"value": {"tensor": {"dtype": "DT_INT32", "tensorShape": {"dim": [{"size": "1"}]}}}, "dtype": {"type": "DT_INT32"}}}, {"name": "inp_text/EncodeFeature/Transformer/TransformerStack/Layer_1/TransformerLayer/MultiheadAttention/split_heads/split_last_dimension/Reshape/shape/1", "op": "Const", "attr": {"dtype": {"type": "DT_INT32"}, "value": {"tensor": {"dtype": "DT_INT32", "tensorShape": {}}}}}, {"name": "inp_text/EncodeFeature/Transformer/TransformerStack/Layer_1/TransformerLayer/MultiheadAttention/split_heads/split_last_dimension/Reshape/shape/2", "op": "Const", "attr": {"value": {"tensor": {"dtype": "DT_INT32", "tensorShape": {}}}, "dtype": {"type": "DT_INT32"}}}, {"name": "inp_text/EncodeFeature/Transformer/TransformerStack/Layer_1/TransformerLayer/MultiheadAttention/split_heads/split_last_dimension/Reshape/shape/3", "op": "Const", "attr": {"value": {"tensor": {"dtype": "DT_INT32", "tensorShape": {}}}, "dtype": {"type": "DT_INT32"}}}, {"name": "inp_text/EncodeFeature/Transformer/TransformerStack/Layer_1/TransformerLayer/MultiheadAttention/split_heads/transpose/perm", "op": "Const", "attr": {"dtype": {"type": "DT_INT32"}, "value": {"tensor": {"dtype": "DT_INT32", "tensorShape": {"dim": [{"size": "4"}]}}}}}, {"name": "inp_text/EncodeFeature/Transformer/TransformerStack/Layer_1/TransformerLayer/MultiheadAttention/mul/y", "op": "Const", "attr": {"dtype": {"type": "DT_FLOAT"}, "value": {"tensor": {"dtype": "DT_FLOAT", "tensorShape": {}}}}}, {"name": "inp_text/EncodeFeature/Transformer/TransformerStack/Layer_1/TransformerLayer/MultiheadAttention/to_3d_1/strided_slice/stack", "op": "Const", "attr": {"dtype": {"type": "DT_INT32"}, "value": {"tensor": {"dtype": "DT_INT32", "tensorShape": {"dim": [{"size": "1"}]}}}}}, {"name": "inp_text/EncodeFeature/Transformer/TransformerStack/Layer_1/TransformerLayer/MultiheadAttention/to_3d_1/strided_slice/stack_1", "op": "Const", "attr": {"dtype": {"type": "DT_INT32"}, "value": {"tensor": {"dtype": "DT_INT32", "tensorShape": {"dim": [{"size": "1"}]}}}}}, {"name": "inp_text/EncodeFeature/Transformer/TransformerStack/Layer_1/TransformerLayer/MultiheadAttention/to_3d_1/strided_slice/stack_2", "op": "Const", "attr": {"value": {"tensor": {"dtype": "DT_INT32", "tensorShape": {"dim": [{"size": "1"}]}}}, "dtype": {"type": "DT_INT32"}}}, {"name": "inp_text/EncodeFeature/Transformer/TransformerStack/Layer_1/TransformerLayer/MultiheadAttention/to_3d_1/Reshape/shape/1", "op": "Const", "attr": {"dtype": {"type": "DT_INT32"}, "value": {"tensor": {"dtype": "DT_INT32", "tensorShape": {}}}}}, {"name": "inp_text/EncodeFeature/Transformer/TransformerStack/Layer_1/TransformerLayer/MultiheadAttention/to_3d_1/Reshape/shape/2", "op": "Const", "attr": {"value": {"tensor": {"dtype": "DT_INT32", "tensorShape": {}}}, "dtype": {"type": "DT_INT32"}}}, {"name": "inp_text/EncodeFeature/Transformer/TransformerStack/Layer_1/TransformerLayer/MultiheadAttention/split_heads_1/split_last_dimension/strided_slice/stack", "op": "Const", "attr": {"dtype": {"type": "DT_INT32"}, "value": {"tensor": {"dtype": "DT_INT32", "tensorShape": {"dim": [{"size": "1"}]}}}}}, {"name": "inp_text/EncodeFeature/Transformer/TransformerStack/Layer_1/TransformerLayer/MultiheadAttention/split_heads_1/split_last_dimension/strided_slice/stack_1", "op": "Const", "attr": {"dtype": {"type": "DT_INT32"}, "value": {"tensor": {"dtype": "DT_INT32", "tensorShape": {"dim": [{"size": "1"}]}}}}}, {"name": "inp_text/EncodeFeature/Transformer/TransformerStack/Layer_1/TransformerLayer/MultiheadAttention/split_heads_1/split_last_dimension/strided_slice/stack_2", "op": "Const", "attr": {"value": {"tensor": {"dtype": "DT_INT32", "tensorShape": {"dim": [{"size": "1"}]}}}, "dtype": {"type": "DT_INT32"}}}, {"name": "inp_text/EncodeFeature/Transformer/TransformerStack/Layer_1/TransformerLayer/MultiheadAttention/split_heads_1/split_last_dimension/Reshape/shape/1", "op": "Const", "attr": {"dtype": {"type": "DT_INT32"}, "value": {"tensor": {"dtype": "DT_INT32", "tensorShape": {}}}}}, {"name": "inp_text/EncodeFeature/Transformer/TransformerStack/Layer_1/TransformerLayer/MultiheadAttention/split_heads_1/split_last_dimension/Reshape/shape/2", "op": "Const", "attr": {"dtype": {"type": "DT_INT32"}, "value": {"tensor": {"dtype": "DT_INT32", "tensorShape": {}}}}}, {"name": "inp_text/EncodeFeature/Transformer/TransformerStack/Layer_1/TransformerLayer/MultiheadAttention/split_heads_1/split_last_dimension/Reshape/shape/3", "op": "Const", "attr": {"value": {"tensor": {"dtype": "DT_INT32", "tensorShape": {}}}, "dtype": {"type": "DT_INT32"}}}, {"name": "inp_text/EncodeFeature/Transformer/TransformerStack/Layer_1/TransformerLayer/MultiheadAttention/split_heads_1/transpose/perm", "op": "Const", "attr": {"value": {"tensor": {"dtype": "DT_INT32", "tensorShape": {"dim": [{"size": "4"}]}}}, "dtype": {"type": "DT_INT32"}}}, {"name": "inp_text/EncodeFeature/Transformer/TransformerStack/Layer_1/TransformerLayer/attention_bias_ignore_padding/mul/y", "op": "Const", "attr": {"value": {"tensor": {"dtype": "DT_FLOAT", "tensorShape": {}}}, "dtype": {"type": "DT_FLOAT"}}}, {"name": "inp_text/EncodeFeature/Transformer/TransformerStack/Layer_1/TransformerLayer/attention_bias_ignore_padding/ExpandDims/dim", "op": "Const", "attr": {"dtype": {"type": "DT_INT32"}, "value": {"tensor": {"dtype": "DT_INT32", "tensorShape": {}}}}}, {"name": "inp_text/EncodeFeature/Transformer/TransformerStack/Layer_1/TransformerLayer/attention_bias_ignore_padding/ExpandDims_1/dim", "op": "Const", "attr": {"value": {"tensor": {"dtype": "DT_INT32", "tensorShape": {}}}, "dtype": {"type": "DT_INT32"}}}, {"name": "inp_text/EncodeFeature/Transformer/TransformerStack/Layer_1/TransformerLayer/layer_prepostprocess/layer_norm/Mean_1/reduction_indices", "op": "Const", "attr": {"dtype": {"type": "DT_INT32"}, "value": {"tensor": {"dtype": "DT_INT32", "tensorShape": {"dim": [{"size": "1"}]}}}}}, {"name": "inp_text/EncodeFeature/Transformer/TransformerStack/Layer_1/TransformerLayer/layer_prepostprocess/layer_norm/Const", "op": "Const", "attr": {"value": {"tensor": {"dtype": "DT_FLOAT", "tensorShape": {}}}, "dtype": {"type": "DT_FLOAT"}}}, {"name": "inp_text/EncodeFeature/Transformer/TransformerStack/Layer_1/TransformerLayer/layer_prepostprocess/layer_norm/Mean/reduction_indices", "op": "Const", "attr": {"value": {"tensor": {"dtype": "DT_INT32", "tensorShape": {"dim": [{"size": "1"}]}}}, "dtype": {"type": "DT_INT32"}}}, {"name": "inp_text/EncodeFeature/Transformer/TransformerStack/Layer_1/TransformerLayer/MultiheadAttention/to_3d_2/strided_slice/stack", "op": "Const", "attr": {"dtype": {"type": "DT_INT32"}, "value": {"tensor": {"dtype": "DT_INT32", "tensorShape": {"dim": [{"size": "1"}]}}}}}, {"name": "inp_text/EncodeFeature/Transformer/TransformerStack/Layer_1/TransformerLayer/MultiheadAttention/to_3d_2/strided_slice/stack_1", "op": "Const", "attr": {"dtype": {"type": "DT_INT32"}, "value": {"tensor": {"dtype": "DT_INT32", "tensorShape": {"dim": [{"size": "1"}]}}}}}, {"name": "inp_text/EncodeFeature/Transformer/TransformerStack/Layer_1/TransformerLayer/MultiheadAttention/to_3d_2/strided_slice/stack_2", "op": "Const", "attr": {"value": {"tensor": {"dtype": "DT_INT32", "tensorShape": {"dim": [{"size": "1"}]}}}, "dtype": {"type": "DT_INT32"}}}, {"name": "inp_text/EncodeFeature/Transformer/TransformerStack/Layer_1/TransformerLayer/MultiheadAttention/to_3d_2/Reshape/shape/1", "op": "Const", "attr": {"dtype": {"type": "DT_INT32"}, "value": {"tensor": {"dtype": "DT_INT32", "tensorShape": {}}}}}, {"name": "inp_text/EncodeFeature/Transformer/TransformerStack/Layer_1/TransformerLayer/MultiheadAttention/to_3d_2/Reshape/shape/2", "op": "Const", "attr": {"dtype": {"type": "DT_INT32"}, "value": {"tensor": {"dtype": "DT_INT32", "tensorShape": {}}}}}, {"name": "inp_text/EncodeFeature/Transformer/TransformerStack/Layer_1/TransformerLayer/MultiheadAttention/split_heads_2/split_last_dimension/strided_slice/stack", "op": "Const", "attr": {"dtype": {"type": "DT_INT32"}, "value": {"tensor": {"dtype": "DT_INT32", "tensorShape": {"dim": [{"size": "1"}]}}}}}, {"name": "inp_text/EncodeFeature/Transformer/TransformerStack/Layer_1/TransformerLayer/MultiheadAttention/split_heads_2/split_last_dimension/strided_slice/stack_1", "op": "Const", "attr": {"dtype": {"type": "DT_INT32"}, "value": {"tensor": {"dtype": "DT_INT32", "tensorShape": {"dim": [{"size": "1"}]}}}}}, {"name": "inp_text/EncodeFeature/Transformer/TransformerStack/Layer_1/TransformerLayer/MultiheadAttention/split_heads_2/split_last_dimension/strided_slice/stack_2", "op": "Const", "attr": {"dtype": {"type": "DT_INT32"}, "value": {"tensor": {"dtype": "DT_INT32", "tensorShape": {"dim": [{"size": "1"}]}}}}}, {"name": "inp_text/EncodeFeature/Transformer/TransformerStack/Layer_1/TransformerLayer/MultiheadAttention/split_heads_2/split_last_dimension/Reshape/shape/1", "op": "Const", "attr": {"dtype": {"type": "DT_INT32"}, "value": {"tensor": {"dtype": "DT_INT32", "tensorShape": {}}}}}, {"name": "inp_text/EncodeFeature/Transformer/TransformerStack/Layer_1/TransformerLayer/MultiheadAttention/split_heads_2/split_last_dimension/Reshape/shape/2", "op": "Const", "attr": {"dtype": {"type": "DT_INT32"}, "value": {"tensor": {"dtype": "DT_INT32", "tensorShape": {}}}}}, {"name": "inp_text/EncodeFeature/Transformer/TransformerStack/Layer_1/TransformerLayer/MultiheadAttention/split_heads_2/split_last_dimension/Reshape/shape/3", "op": "Const", "attr": {"value": {"tensor": {"dtype": "DT_INT32", "tensorShape": {}}}, "dtype": {"type": "DT_INT32"}}}, {"name": "inp_text/EncodeFeature/Transformer/TransformerStack/Layer_1/TransformerLayer/MultiheadAttention/split_heads_2/transpose/perm", "op": "Const", "attr": {"dtype": {"type": "DT_INT32"}, "value": {"tensor": {"dtype": "DT_INT32", "tensorShape": {"dim": [{"size": "4"}]}}}}}, {"name": "inp_text/EncodeFeature/Transformer/TransformerStack/Layer_1/TransformerLayer/MultiheadAttention/combine_heads/transpose/perm", "op": "Const", "attr": {"dtype": {"type": "DT_INT32"}, "value": {"tensor": {"dtype": "DT_INT32", "tensorShape": {"dim": [{"size": "4"}]}}}}}, {"name": "inp_text/EncodeFeature/Transformer/TransformerStack/Layer_1/TransformerLayer/MultiheadAttention/to_2d/strided_slice/stack", "op": "Const", "attr": {"dtype": {"type": "DT_INT32"}, "value": {"tensor": {"dtype": "DT_INT32", "tensorShape": {"dim": [{"size": "1"}]}}}}}, {"name": "inp_text/EncodeFeature/Transformer/TransformerStack/Layer_1/TransformerLayer/MultiheadAttention/to_2d/strided_slice/stack_1", "op": "Const", "attr": {"dtype": {"type": "DT_INT32"}, "value": {"tensor": {"dtype": "DT_INT32", "tensorShape": {"dim": [{"size": "1"}]}}}}}, {"name": "inp_text/EncodeFeature/Transformer/TransformerStack/Layer_1/TransformerLayer/MultiheadAttention/to_2d/strided_slice/stack_2", "op": "Const", "attr": {"value": {"tensor": {"dtype": "DT_INT32", "tensorShape": {"dim": [{"size": "1"}]}}}, "dtype": {"type": "DT_INT32"}}}, {"name": "inp_text/EncodeFeature/Transformer/TransformerStack/Layer_1/TransformerLayer/MultiheadAttention/to_2d/mul/y", "op": "Const", "attr": {"dtype": {"type": "DT_INT32"}, "value": {"tensor": {"dtype": "DT_INT32", "tensorShape": {}}}}}, {"name": "inp_text/EncodeFeature/Transformer/TransformerStack/Layer_1/TransformerLayer/MultiheadAttention/to_2d/Reshape/shape/1", "op": "Const", "attr": {"value": {"tensor": {"dtype": "DT_INT32", "tensorShape": {}}}, "dtype": {"type": "DT_INT32"}}}, {"name": "inp_text/EncodeFeature/Transformer/TransformerStack/Layer_0/TransformerLayer/FFN/conv2/Tensordot/Const", "op": "Const", "attr": {"value": {"tensor": {"dtype": "DT_INT32", "tensorShape": {"dim": [{"size": "1"}]}}}, "dtype": {"type": "DT_INT32"}}}, {"name": "inp_text/EncodeFeature/Transformer/TransformerStack/Layer_0/TransformerLayer/FFN/conv2/Tensordot/axes", "op": "Const", "attr": {"dtype": {"type": "DT_INT32"}, "value": {"tensor": {"dtype": "DT_INT32", "tensorShape": {"dim": [{"size": "1"}]}}}}}, {"name": "inp_text/EncodeFeature/Transformer/TransformerStack/Layer_0/TransformerLayer/FFN/conv2/Tensordot/GatherV2_1/axis", "op": "Const", "attr": {"value": {"tensor": {"dtype": "DT_INT32", "tensorShape": {}}}, "dtype": {"type": "DT_INT32"}}}, {"name": "inp_text/EncodeFeature/Transformer/TransformerStack/Layer_0/TransformerLayer/FFN/conv2/Tensordot/Const_1", "op": "Const", "attr": {"dtype": {"type": "DT_INT32"}, "value": {"tensor": {"dtype": "DT_INT32", "tensorShape": {"dim": [{"size": "1"}]}}}}}, {"name": "inp_text/EncodeFeature/Transformer/TransformerStack/Layer_0/TransformerLayer/FFN/conv1/Tensordot/Const", "op": "Const", "attr": {"value": {"tensor": {"dtype": "DT_INT32", "tensorShape": {"dim": [{"size": "1"}]}}}, "dtype": {"type": "DT_INT32"}}}, {"name": "inp_text/EncodeFeature/Transformer/TransformerStack/Layer_0/TransformerLayer/FFN/conv1/Tensordot/axes", "op": "Const", "attr": {"dtype": {"type": "DT_INT32"}, "value": {"tensor": {"dtype": "DT_INT32", "tensorShape": {"dim": [{"size": "1"}]}}}}}, {"name": "inp_text/EncodeFeature/Transformer/TransformerStack/Layer_0/TransformerLayer/FFN/conv1/Tensordot/GatherV2_1/axis", "op": "Const", "attr": {"value": {"tensor": {"dtype": "DT_INT32", "tensorShape": {}}}, "dtype": {"type": "DT_INT32"}}}, {"name": "inp_text/EncodeFeature/Transformer/TransformerStack/Layer_0/TransformerLayer/FFN/conv1/Tensordot/Const_1", "op": "Const", "attr": {"value": {"tensor": {"dtype": "DT_INT32", "tensorShape": {"dim": [{"size": "1"}]}}}, "dtype": {"type": "DT_INT32"}}}, {"name": "inp_text/EncodeFeature/Transformer/TransformerStack/Layer_0/TransformerLayer/FFN/layer_prepostprocess/layer_norm/Mean_1/reduction_indices", "op": "Const", "attr": {"value": {"tensor": {"dtype": "DT_INT32", "tensorShape": {"dim": [{"size": "1"}]}}}, "dtype": {"type": "DT_INT32"}}}, {"name": "inp_text/EncodeFeature/Transformer/TransformerStack/Layer_0/TransformerLayer/FFN/layer_prepostprocess/layer_norm/Const", "op": "Const", "attr": {"value": {"tensor": {"dtype": "DT_FLOAT", "tensorShape": {}}}, "dtype": {"type": "DT_FLOAT"}}}, {"name": "inp_text/EncodeFeature/Transformer/TransformerStack/Layer_0/TransformerLayer/FFN/layer_prepostprocess/layer_norm/Mean/reduction_indices", "op": "Const", "attr": {"value": {"tensor": {"dtype": "DT_INT32", "tensorShape": {"dim": [{"size": "1"}]}}}, "dtype": {"type": "DT_INT32"}}}, {"name": "inp_text/EncodeFeature/Transformer/TransformerStack/Layer_0/TransformerLayer/FFN/ExpandDims/dim", "op": "Const", "attr": {"dtype": {"type": "DT_INT32"}, "value": {"tensor": {"dtype": "DT_INT32", "tensorShape": {}}}}}, {"name": "inp_text/EncodeFeature/Transformer/TransformerStack/Layer_0/TransformerLayer/FFN/conv1/Tensordot/free", "op": "Const", "attr": {"dtype": {"type": "DT_INT32"}, "value": {"tensor": {"dtype": "DT_INT32", "tensorShape": {"dim": [{"size": "2"}]}}}}}, {"name": "inp_text/EncodeFeature/Transformer/TransformerStack/Layer_0/TransformerLayer/FFN/conv1/Tensordot/GatherV2/axis", "op": "Const", "attr": {"dtype": {"type": "DT_INT32"}, "value": {"tensor": {"dtype": "DT_INT32", "tensorShape": {}}}}}, {"name": "inp_text/EncodeFeature/Transformer/TransformerStack/Layer_0/TransformerLayer/FFN/conv1/Tensordot/Const_2", "op": "Const", "attr": {"dtype": {"type": "DT_INT32"}, "value": {"tensor": {"dtype": "DT_INT32", "tensorShape": {"dim": [{"size": "1"}]}}}}}, {"name": "inp_text/EncodeFeature/Transformer/TransformerStack/Layer_0/TransformerLayer/FFN/conv1/Tensordot/concat_1/axis", "op": "Const", "attr": {"dtype": {"type": "DT_INT32"}, "value": {"tensor": {"dtype": "DT_INT32", "tensorShape": {}}}}}, {"name": "inp_text/EncodeFeature/Transformer/TransformerStack/Layer_0/TransformerLayer/FFN/conv2/Tensordot/free", "op": "Const", "attr": {"dtype": {"type": "DT_INT32"}, "value": {"tensor": {"dtype": "DT_INT32", "tensorShape": {"dim": [{"size": "2"}]}}}}}, {"name": "inp_text/EncodeFeature/Transformer/TransformerStack/Layer_0/TransformerLayer/FFN/conv2/Tensordot/GatherV2/axis", "op": "Const", "attr": {"dtype": {"type": "DT_INT32"}, "value": {"tensor": {"dtype": "DT_INT32", "tensorShape": {}}}}}, {"name": "inp_text/EncodeFeature/Transformer/TransformerStack/Layer_0/TransformerLayer/FFN/conv2/Tensordot/Const_2", "op": "Const", "attr": {"dtype": {"type": "DT_INT32"}, "value": {"tensor": {"dtype": "DT_INT32", "tensorShape": {"dim": [{"size": "1"}]}}}}}, {"name": "inp_text/EncodeFeature/Transformer/TransformerStack/Layer_0/TransformerLayer/FFN/conv2/Tensordot/concat_1/axis", "op": "Const", "attr": {"value": {"tensor": {"dtype": "DT_INT32", "tensorShape": {}}}, "dtype": {"type": "DT_INT32"}}}, {"name": "inp_text/EncodeFeature/Transformer/TransformerStack/Layer_0/TransformerLayer/MultiheadAttention/to_3d/strided_slice/stack", "op": "Const", "attr": {"value": {"tensor": {"dtype": "DT_INT32", "tensorShape": {"dim": [{"size": "1"}]}}}, "dtype": {"type": "DT_INT32"}}}, {"name": "inp_text/EncodeFeature/Transformer/TransformerStack/Layer_0/TransformerLayer/MultiheadAttention/to_3d/strided_slice/stack_1", "op": "Const", "attr": {"dtype": {"type": "DT_INT32"}, "value": {"tensor": {"dtype": "DT_INT32", "tensorShape": {"dim": [{"size": "1"}]}}}}}, {"name": "inp_text/EncodeFeature/Transformer/TransformerStack/Layer_0/TransformerLayer/MultiheadAttention/to_3d/strided_slice/stack_2", "op": "Const", "attr": {"dtype": {"type": "DT_INT32"}, "value": {"tensor": {"dtype": "DT_INT32", "tensorShape": {"dim": [{"size": "1"}]}}}}}, {"name": "inp_text/EncodeFeature/Transformer/TransformerStack/Layer_0/TransformerLayer/MultiheadAttention/to_3d/Reshape/shape/1", "op": "Const", "attr": {"dtype": {"type": "DT_INT32"}, "value": {"tensor": {"dtype": "DT_INT32", "tensorShape": {}}}}}, {"name": "inp_text/EncodeFeature/Transformer/TransformerStack/Layer_0/TransformerLayer/MultiheadAttention/to_3d/Reshape/shape/2", "op": "Const", "attr": {"dtype": {"type": "DT_INT32"}, "value": {"tensor": {"dtype": "DT_INT32", "tensorShape": {}}}}}, {"name": "inp_text/EncodeFeature/Transformer/TransformerStack/Layer_0/TransformerLayer/MultiheadAttention/split_heads/split_last_dimension/strided_slice/stack", "op": "Const", "attr": {"value": {"tensor": {"dtype": "DT_INT32", "tensorShape": {"dim": [{"size": "1"}]}}}, "dtype": {"type": "DT_INT32"}}}, {"name": "inp_text/EncodeFeature/Transformer/TransformerStack/Layer_0/TransformerLayer/MultiheadAttention/split_heads/split_last_dimension/strided_slice/stack_1", "op": "Const", "attr": {"value": {"tensor": {"dtype": "DT_INT32", "tensorShape": {"dim": [{"size": "1"}]}}}, "dtype": {"type": "DT_INT32"}}}, {"name": "inp_text/EncodeFeature/Transformer/TransformerStack/Layer_0/TransformerLayer/MultiheadAttention/split_heads/split_last_dimension/strided_slice/stack_2", "op": "Const", "attr": {"value": {"tensor": {"dtype": "DT_INT32", "tensorShape": {"dim": [{"size": "1"}]}}}, "dtype": {"type": "DT_INT32"}}}, {"name": "inp_text/EncodeFeature/Transformer/TransformerStack/Layer_0/TransformerLayer/MultiheadAttention/split_heads/split_last_dimension/Reshape/shape/1", "op": "Const", "attr": {"value": {"tensor": {"dtype": "DT_INT32", "tensorShape": {}}}, "dtype": {"type": "DT_INT32"}}}, {"name": "inp_text/EncodeFeature/Transformer/TransformerStack/Layer_0/TransformerLayer/MultiheadAttention/split_heads/split_last_dimension/Reshape/shape/2", "op": "Const", "attr": {"dtype": {"type": "DT_INT32"}, "value": {"tensor": {"dtype": "DT_INT32", "tensorShape": {}}}}}, {"name": "inp_text/EncodeFeature/Transformer/TransformerStack/Layer_0/TransformerLayer/MultiheadAttention/split_heads/split_last_dimension/Reshape/shape/3", "op": "Const", "attr": {"value": {"tensor": {"dtype": "DT_INT32", "tensorShape": {}}}, "dtype": {"type": "DT_INT32"}}}, {"name": "inp_text/EncodeFeature/Transformer/TransformerStack/Layer_0/TransformerLayer/MultiheadAttention/split_heads/transpose/perm", "op": "Const", "attr": {"dtype": {"type": "DT_INT32"}, "value": {"tensor": {"dtype": "DT_INT32", "tensorShape": {"dim": [{"size": "4"}]}}}}}, {"name": "inp_text/EncodeFeature/Transformer/TransformerStack/Layer_0/TransformerLayer/MultiheadAttention/mul/y", "op": "Const", "attr": {"dtype": {"type": "DT_FLOAT"}, "value": {"tensor": {"dtype": "DT_FLOAT", "tensorShape": {}}}}}, {"name": "inp_text/EncodeFeature/Transformer/TransformerStack/Layer_0/TransformerLayer/MultiheadAttention/to_3d_1/strided_slice/stack", "op": "Const", "attr": {"value": {"tensor": {"dtype": "DT_INT32", "tensorShape": {"dim": [{"size": "1"}]}}}, "dtype": {"type": "DT_INT32"}}}, {"name": "inp_text/EncodeFeature/Transformer/TransformerStack/Layer_0/TransformerLayer/MultiheadAttention/to_3d_1/strided_slice/stack_1", "op": "Const", "attr": {"value": {"tensor": {"dtype": "DT_INT32", "tensorShape": {"dim": [{"size": "1"}]}}}, "dtype": {"type": "DT_INT32"}}}, {"name": "inp_text/EncodeFeature/Transformer/TransformerStack/Layer_0/TransformerLayer/MultiheadAttention/to_3d_1/strided_slice/stack_2", "op": "Const", "attr": {"value": {"tensor": {"dtype": "DT_INT32", "tensorShape": {"dim": [{"size": "1"}]}}}, "dtype": {"type": "DT_INT32"}}}, {"name": "inp_text/EncodeFeature/Transformer/TransformerStack/Layer_0/TransformerLayer/MultiheadAttention/to_3d_1/Reshape/shape/1", "op": "Const", "attr": {"value": {"tensor": {"dtype": "DT_INT32", "tensorShape": {}}}, "dtype": {"type": "DT_INT32"}}}, {"name": "inp_text/EncodeFeature/Transformer/TransformerStack/Layer_0/TransformerLayer/MultiheadAttention/to_3d_1/Reshape/shape/2", "op": "Const", "attr": {"dtype": {"type": "DT_INT32"}, "value": {"tensor": {"dtype": "DT_INT32", "tensorShape": {}}}}}, {"name": "inp_text/EncodeFeature/Transformer/TransformerStack/Layer_0/TransformerLayer/MultiheadAttention/split_heads_1/split_last_dimension/strided_slice/stack", "op": "Const", "attr": {"dtype": {"type": "DT_INT32"}, "value": {"tensor": {"dtype": "DT_INT32", "tensorShape": {"dim": [{"size": "1"}]}}}}}, {"name": "inp_text/EncodeFeature/Transformer/TransformerStack/Layer_0/TransformerLayer/MultiheadAttention/split_heads_1/split_last_dimension/strided_slice/stack_1", "op": "Const", "attr": {"value": {"tensor": {"dtype": "DT_INT32", "tensorShape": {"dim": [{"size": "1"}]}}}, "dtype": {"type": "DT_INT32"}}}, {"name": "inp_text/EncodeFeature/Transformer/TransformerStack/Layer_0/TransformerLayer/MultiheadAttention/split_heads_1/split_last_dimension/strided_slice/stack_2", "op": "Const", "attr": {"value": {"tensor": {"dtype": "DT_INT32", "tensorShape": {"dim": [{"size": "1"}]}}}, "dtype": {"type": "DT_INT32"}}}, {"name": "inp_text/EncodeFeature/Transformer/TransformerStack/Layer_0/TransformerLayer/MultiheadAttention/split_heads_1/split_last_dimension/Reshape/shape/1", "op": "Const", "attr": {"value": {"tensor": {"dtype": "DT_INT32", "tensorShape": {}}}, "dtype": {"type": "DT_INT32"}}}, {"name": "inp_text/EncodeFeature/Transformer/TransformerStack/Layer_0/TransformerLayer/MultiheadAttention/split_heads_1/split_last_dimension/Reshape/shape/2", "op": "Const", "attr": {"dtype": {"type": "DT_INT32"}, "value": {"tensor": {"dtype": "DT_INT32", "tensorShape": {}}}}}, {"name": "inp_text/EncodeFeature/Transformer/TransformerStack/Layer_0/TransformerLayer/MultiheadAttention/split_heads_1/split_last_dimension/Reshape/shape/3", "op": "Const", "attr": {"value": {"tensor": {"dtype": "DT_INT32", "tensorShape": {}}}, "dtype": {"type": "DT_INT32"}}}, {"name": "inp_text/EncodeFeature/Transformer/TransformerStack/Layer_0/TransformerLayer/MultiheadAttention/split_heads_1/transpose/perm", "op": "Const", "attr": {"dtype": {"type": "DT_INT32"}, "value": {"tensor": {"dtype": "DT_INT32", "tensorShape": {"dim": [{"size": "4"}]}}}}}, {"name": "inp_text/EncodeFeature/Transformer/TransformerStack/Layer_0/TransformerLayer/attention_bias_ignore_padding/mul/y", "op": "Const", "attr": {"dtype": {"type": "DT_FLOAT"}, "value": {"tensor": {"dtype": "DT_FLOAT", "tensorShape": {}}}}}, {"name": "inp_text/EncodeFeature/Transformer/TransformerStack/Layer_0/TransformerLayer/attention_bias_ignore_padding/ExpandDims/dim", "op": "Const", "attr": {"value": {"tensor": {"dtype": "DT_INT32", "tensorShape": {}}}, "dtype": {"type": "DT_INT32"}}}, {"name": "inp_text/EncodeFeature/Transformer/TransformerStack/Layer_0/TransformerLayer/attention_bias_ignore_padding/ExpandDims_1/dim", "op": "Const", "attr": {"value": {"tensor": {"dtype": "DT_INT32", "tensorShape": {}}}, "dtype": {"type": "DT_INT32"}}}, {"name": "inp_text/EncodeFeature/Transformer/TransformerStack/Layer_0/TransformerLayer/layer_prepostprocess/layer_norm/Mean_1/reduction_indices", "op": "Const", "attr": {"dtype": {"type": "DT_INT32"}, "value": {"tensor": {"dtype": "DT_INT32", "tensorShape": {"dim": [{"size": "1"}]}}}}}, {"name": "inp_text/EncodeFeature/Transformer/TransformerStack/Layer_0/TransformerLayer/layer_prepostprocess/layer_norm/Const", "op": "Const", "attr": {"dtype": {"type": "DT_FLOAT"}, "value": {"tensor": {"dtype": "DT_FLOAT", "tensorShape": {}}}}}, {"name": "inp_text/EncodeFeature/Transformer/TransformerStack/Layer_0/TransformerLayer/layer_prepostprocess/layer_norm/Mean/reduction_indices", "op": "Const", "attr": {"value": {"tensor": {"dtype": "DT_INT32", "tensorShape": {"dim": [{"size": "1"}]}}}, "dtype": {"type": "DT_INT32"}}}, {"name": "inp_text/EncodeFeature/Transformer/TransformerStack/Layer_0/TransformerLayer/MultiheadAttention/to_3d_2/strided_slice/stack", "op": "Const", "attr": {"dtype": {"type": "DT_INT32"}, "value": {"tensor": {"dtype": "DT_INT32", "tensorShape": {"dim": [{"size": "1"}]}}}}}, {"name": "inp_text/EncodeFeature/Transformer/TransformerStack/Layer_0/TransformerLayer/MultiheadAttention/to_3d_2/strided_slice/stack_1", "op": "Const", "attr": {"dtype": {"type": "DT_INT32"}, "value": {"tensor": {"dtype": "DT_INT32", "tensorShape": {"dim": [{"size": "1"}]}}}}}, {"name": "inp_text/EncodeFeature/Transformer/TransformerStack/Layer_0/TransformerLayer/MultiheadAttention/to_3d_2/strided_slice/stack_2", "op": "Const", "attr": {"dtype": {"type": "DT_INT32"}, "value": {"tensor": {"dtype": "DT_INT32", "tensorShape": {"dim": [{"size": "1"}]}}}}}, {"name": "inp_text/EncodeFeature/Transformer/TransformerStack/Layer_0/TransformerLayer/MultiheadAttention/to_3d_2/Reshape/shape/1", "op": "Const", "attr": {"dtype": {"type": "DT_INT32"}, "value": {"tensor": {"dtype": "DT_INT32", "tensorShape": {}}}}}, {"name": "inp_text/EncodeFeature/Transformer/TransformerStack/Layer_0/TransformerLayer/MultiheadAttention/to_3d_2/Reshape/shape/2", "op": "Const", "attr": {"value": {"tensor": {"dtype": "DT_INT32", "tensorShape": {}}}, "dtype": {"type": "DT_INT32"}}}, {"name": "inp_text/EncodeFeature/Transformer/TransformerStack/Layer_0/TransformerLayer/MultiheadAttention/split_heads_2/split_last_dimension/strided_slice/stack", "op": "Const", "attr": {"dtype": {"type": "DT_INT32"}, "value": {"tensor": {"dtype": "DT_INT32", "tensorShape": {"dim": [{"size": "1"}]}}}}}, {"name": "inp_text/EncodeFeature/Transformer/TransformerStack/Layer_0/TransformerLayer/MultiheadAttention/split_heads_2/split_last_dimension/strided_slice/stack_1", "op": "Const", "attr": {"dtype": {"type": "DT_INT32"}, "value": {"tensor": {"dtype": "DT_INT32", "tensorShape": {"dim": [{"size": "1"}]}}}}}, {"name": "inp_text/EncodeFeature/Transformer/TransformerStack/Layer_0/TransformerLayer/MultiheadAttention/split_heads_2/split_last_dimension/strided_slice/stack_2", "op": "Const", "attr": {"value": {"tensor": {"dtype": "DT_INT32", "tensorShape": {"dim": [{"size": "1"}]}}}, "dtype": {"type": "DT_INT32"}}}, {"name": "inp_text/EncodeFeature/Transformer/TransformerStack/Layer_0/TransformerLayer/MultiheadAttention/split_heads_2/split_last_dimension/Reshape/shape/1", "op": "Const", "attr": {"dtype": {"type": "DT_INT32"}, "value": {"tensor": {"dtype": "DT_INT32", "tensorShape": {}}}}}, {"name": "inp_text/EncodeFeature/Transformer/TransformerStack/Layer_0/TransformerLayer/MultiheadAttention/split_heads_2/split_last_dimension/Reshape/shape/2", "op": "Const", "attr": {"dtype": {"type": "DT_INT32"}, "value": {"tensor": {"dtype": "DT_INT32", "tensorShape": {}}}}}, {"name": "inp_text/EncodeFeature/Transformer/TransformerStack/Layer_0/TransformerLayer/MultiheadAttention/split_heads_2/split_last_dimension/Reshape/shape/3", "op": "Const", "attr": {"value": {"tensor": {"dtype": "DT_INT32", "tensorShape": {}}}, "dtype": {"type": "DT_INT32"}}}, {"name": "inp_text/EncodeFeature/Transformer/TransformerStack/Layer_0/TransformerLayer/MultiheadAttention/split_heads_2/transpose/perm", "op": "Const", "attr": {"dtype": {"type": "DT_INT32"}, "value": {"tensor": {"dtype": "DT_INT32", "tensorShape": {"dim": [{"size": "4"}]}}}}}, {"name": "inp_text/EncodeFeature/Transformer/TransformerStack/Layer_0/TransformerLayer/MultiheadAttention/combine_heads/transpose/perm", "op": "Const", "attr": {"dtype": {"type": "DT_INT32"}, "value": {"tensor": {"dtype": "DT_INT32", "tensorShape": {"dim": [{"size": "4"}]}}}}}, {"name": "inp_text/EncodeFeature/Transformer/TransformerStack/Layer_0/TransformerLayer/MultiheadAttention/to_2d/strided_slice/stack", "op": "Const", "attr": {"dtype": {"type": "DT_INT32"}, "value": {"tensor": {"dtype": "DT_INT32", "tensorShape": {"dim": [{"size": "1"}]}}}}}, {"name": "inp_text/EncodeFeature/Transformer/TransformerStack/Layer_0/TransformerLayer/MultiheadAttention/to_2d/strided_slice/stack_1", "op": "Const", "attr": {"dtype": {"type": "DT_INT32"}, "value": {"tensor": {"dtype": "DT_INT32", "tensorShape": {"dim": [{"size": "1"}]}}}}}, {"name": "inp_text/EncodeFeature/Transformer/TransformerStack/Layer_0/TransformerLayer/MultiheadAttention/to_2d/strided_slice/stack_2", "op": "Const", "attr": {"value": {"tensor": {"dtype": "DT_INT32", "tensorShape": {"dim": [{"size": "1"}]}}}, "dtype": {"type": "DT_INT32"}}}, {"name": "inp_text/EncodeFeature/Transformer/TransformerStack/Layer_0/TransformerLayer/MultiheadAttention/to_2d/mul/y", "op": "Const", "attr": {"dtype": {"type": "DT_INT32"}, "value": {"tensor": {"dtype": "DT_INT32", "tensorShape": {}}}}}, {"name": "inp_text/EncodeFeature/Transformer/TransformerStack/Layer_0/TransformerLayer/MultiheadAttention/to_2d/Reshape/shape/1", "op": "Const", "attr": {"dtype": {"type": "DT_INT32"}, "value": {"tensor": {"dtype": "DT_INT32", "tensorShape": {}}}}}, {"name": "inp_text/EncodeFeature/Transformer/TransformerStack/Layer_0/AddTimingSignal/to_2d/strided_slice/stack", "op": "Const", "attr": {"value": {"tensor": {"dtype": "DT_INT32", "tensorShape": {"dim": [{"size": "1"}]}}}, "dtype": {"type": "DT_INT32"}}}, {"name": "inp_text/EncodeFeature/Transformer/TransformerStack/Layer_0/AddTimingSignal/to_2d/strided_slice/stack_1", "op": "Const", "attr": {"value": {"tensor": {"dtype": "DT_INT32", "tensorShape": {"dim": [{"size": "1"}]}}}, "dtype": {"type": "DT_INT32"}}}, {"name": "inp_text/EncodeFeature/Transformer/TransformerStack/Layer_0/AddTimingSignal/to_2d/strided_slice/stack_2", "op": "Const", "attr": {"value": {"tensor": {"dtype": "DT_INT32", "tensorShape": {"dim": [{"size": "1"}]}}}, "dtype": {"type": "DT_INT32"}}}, {"name": "inp_text/EncodeFeature/Transformer/TransformerStack/Layer_0/AddTimingSignal/to_2d/mul/y", "op": "Const", "attr": {"dtype": {"type": "DT_INT32"}, "value": {"tensor": {"dtype": "DT_INT32", "tensorShape": {}}}}}, {"name": "inp_text/EncodeFeature/Transformer/TransformerStack/Layer_0/AddTimingSignal/to_2d/Reshape/shape/1", "op": "Const", "attr": {"value": {"tensor": {"dtype": "DT_INT32", "tensorShape": {}}}, "dtype": {"type": "DT_INT32"}}}, {"name": "inp_text/EncodeFeature/Transformer/TransformerStack/Layer_0/AddTimingSignal/range", "op": "Const", "attr": {"value": {"tensor": {"dtype": "DT_INT32", "tensorShape": {"dim": [{"size": "192"}]}}}, "dtype": {"type": "DT_INT32"}}}, {"name": "inp_text/EncodeFeature/Transformer/TransformerStack/Layer_0/AddTimingSignal/strided_slice/stack", "op": "Const", "attr": {"dtype": {"type": "DT_INT32"}, "value": {"tensor": {"dtype": "DT_INT32", "tensorShape": {"dim": [{"size": "1"}]}}}}}, {"name": "inp_text/EncodeFeature/Transformer/TransformerStack/Layer_0/AddTimingSignal/strided_slice/stack_1", "op": "Const", "attr": {"dtype": {"type": "DT_INT32"}, "value": {"tensor": {"dtype": "DT_INT32", "tensorShape": {"dim": [{"size": "1"}]}}}}}, {"name": "inp_text/EncodeFeature/Transformer/TransformerStack/Layer_0/AddTimingSignal/strided_slice/stack_2", "op": "Const", "attr": {"value": {"tensor": {"dtype": "DT_INT32", "tensorShape": {"dim": [{"size": "1"}]}}}, "dtype": {"type": "DT_INT32"}}}, {"name": "inp_text/EncodeFeature/Transformer/TransformerStack/Layer_0/AddTimingSignal/TimingSignal/ExpandDims/dim", "op": "Const", "attr": {"dtype": {"type": "DT_INT32"}, "value": {"tensor": {"dtype": "DT_INT32", "tensorShape": {}}}}}, {"name": "inp_text/EncodeFeature/Transformer/TransformerStack/Layer_0/AddTimingSignal/TimingSignal/ExpandDims_1", "op": "Const", "attr": {"dtype": {"type": "DT_FLOAT"}, "value": {"tensor": {"dtype": "DT_FLOAT", "tensorShape": {"dim": [{"size": "1"}, {"size": "50"}]}}}}}, {"name": "inp_text/EncodeFeature/Transformer/TransformerStack/Layer_0/AddTimingSignal/TimingSignal/concat/axis", "op": "Const", "attr": {"dtype": {"type": "DT_INT32"}, "value": {"tensor": {"dtype": "DT_INT32", "tensorShape": {}}}}}, {"name": "inp_text/EncodeFeature/Transformer/reduce_all_tokens/to_3d/strided_slice/stack", "op": "Const", "attr": {"dtype": {"type": "DT_INT32"}, "value": {"tensor": {"dtype": "DT_INT32", "tensorShape": {"dim": [{"size": "1"}]}}}}}, {"name": "inp_text/EncodeFeature/Transformer/reduce_all_tokens/to_3d/strided_slice/stack_1", "op": "Const", "attr": {"dtype": {"type": "DT_INT32"}, "value": {"tensor": {"dtype": "DT_INT32", "tensorShape": {"dim": [{"size": "1"}]}}}}}, {"name": "inp_text/EncodeFeature/Transformer/reduce_all_tokens/to_3d/strided_slice/stack_2", "op": "Const", "attr": {"dtype": {"type": "DT_INT32"}, "value": {"tensor": {"dtype": "DT_INT32", "tensorShape": {"dim": [{"size": "1"}]}}}}}, {"name": "inp_text/EncodeFeature/Transformer/reduce_all_tokens/to_3d/Reshape/shape/1", "op": "Const", "attr": {"dtype": {"type": "DT_INT32"}, "value": {"tensor": {"dtype": "DT_INT32", "tensorShape": {}}}}}, {"name": "inp_text/EncodeFeature/Transformer/reduce_all_tokens/to_3d/Reshape/shape/2", "op": "Const", "attr": {"value": {"tensor": {"dtype": "DT_INT32", "tensorShape": {}}}, "dtype": {"type": "DT_INT32"}}}, {"name": "inp_text/EncodeFeature/Transformer/reduce_all_tokens/Sum/reduction_indices", "op": "Const", "attr": {"dtype": {"type": "DT_INT32"}, "value": {"tensor": {"dtype": "DT_INT32", "tensorShape": {}}}}}, {"name": "inp_text/EncodeFeature/Transformer/reduce_all_tokens/lengths/Sum/reduction_indices", "op": "Const", "attr": {"value": {"tensor": {"dtype": "DT_INT32", "tensorShape": {}}}, "dtype": {"type": "DT_INT32"}}}, {"name": "inp_text/EncodeFeature/Transformer/reduce_all_tokens/Maximum/y", "op": "Const", "attr": {"value": {"tensor": {"dtype": "DT_INT32", "tensorShape": {}}}, "dtype": {"type": "DT_INT32"}}}, {"name": "inp_text/EncodeFeature/Transformer/reduce_all_tokens/ExpandDims_1/dim", "op": "Const", "attr": {"value": {"tensor": {"dtype": "DT_INT32", "tensorShape": {}}}, "dtype": {"type": "DT_INT32"}}}, {"name": "inp_text/EncodeFeature/embedding_lookup/axis", "op": "Const", "attr": {"dtype": {"type": "DT_INT32"}, "value": {"tensor": {"dtype": "DT_INT32", "tensorShape": {}}}}}, {"name": "inp_text/EncodeFeature/Sum/reduction_indices", "op": "Const", "attr": {"value": {"tensor": {"dtype": "DT_INT32", "tensorShape": {}}}, "dtype": {"type": "DT_INT32"}}}, {"name": "inp_text/EncodeFeature/NotEqual/y", "op": "Const", "attr": {"dtype": {"type": "DT_INT32"}, "value": {"tensor": {"dtype": "DT_INT32", "tensorShape": {}}}}}, {"name": "inp_text/EncodeFeature/ExpandDims/dim", "op": "Const", "attr": {"value": {"tensor": {"dtype": "DT_INT32", "tensorShape": {}}}, "dtype": {"type": "DT_INT32"}}}, {"name": "inp_text/EncodeFeature/Sum_1/reduction_indices", "op": "Const", "attr": {"dtype": {"type": "DT_INT32"}, "value": {"tensor": {"dtype": "DT_INT32", "tensorShape": {}}}}}, {"name": "inp_text/EncodeFeature/Transformer/concat/axis", "op": "Const", "attr": {"dtype": {"type": "DT_INT32"}, "value": {"tensor": {"dtype": "DT_INT32", "tensorShape": {}}}}}, {"name": "inp_text/res_context/EncodeQuery/tanh_layer_0/dense/kernel", "op": "Const", "attr": {"dtype": {"type": "DT_FLOAT"}, "value": {"tensor": {"dtype": "DT_FLOAT", "tensorShape": {"dim": [{"size": "220"}, {"size": "100"}]}}}}}, {"name": "inp_text/res_context/EncodeQuery/tanh_layer_0/dense/bias", "op": "Const", "attr": {"dtype": {"type": "DT_FLOAT"}, "value": {"tensor": {"dtype": "DT_FLOAT", "tensorShape": {"dim": [{"size": "100"}]}}}}}, {"name": "inp_text/res_context/EncodeQuery/tanh_layer_1/dense/kernel", "op": "Const", "attr": {"value": {"tensor": {"dtype": "DT_FLOAT", "tensorShape": {"dim": [{"size": "100"}, {"size": "100"}]}}}, "dtype": {"type": "DT_FLOAT"}}}, {"name": "inp_text/res_context/EncodeQuery/tanh_layer_1/dense/bias", "op": "Const", "attr": {"value": {"tensor": {"dtype": "DT_FLOAT", "tensorShape": {"dim": [{"size": "100"}]}}}, "dtype": {"type": "DT_FLOAT"}}}, {"name": "inp_text/res_context/EncodeQuery/tanh_layer_2/dense/kernel", "op": "Const", "attr": {"value": {"tensor": {"dtype": "DT_FLOAT", "tensorShape": {"dim": [{"size": "100"}, {"size": "100"}]}}}, "dtype": {"type": "DT_FLOAT"}}}, {"name": "inp_text/res_context/EncodeQuery/tanh_layer_2/dense/bias", "op": "Const", "attr": {"dtype": {"type": "DT_FLOAT"}, "value": {"tensor": {"dtype": "DT_FLOAT", "tensorShape": {"dim": [{"size": "100"}]}}}}}, {"name": "Final/CombineQueryEncodings/Mean/reduction_indices", "op": "Const", "attr": {"dtype": {"type": "DT_INT32"}, "value": {"tensor": {"dtype": "DT_INT32", "tensorShape": {"dim": [{"size": "1"}]}}}}}, {"name": "Final/EncodeQuery/tanh_layer_0/dense/kernel", "op": "Const", "attr": {"value": {"tensor": {"dtype": "DT_FLOAT", "tensorShape": {"dim": [{"size": "100"}, {"size": "100"}]}}}, "dtype": {"type": "DT_FLOAT"}}}, {"name": "Final/EncodeQuery/tanh_layer_0/dense/bias", "op": "Const", "attr": {"value": {"tensor": {"dtype": "DT_FLOAT", "tensorShape": {"dim": [{"size": "100"}]}}}, "dtype": {"type": "DT_FLOAT"}}}, {"name": "Final/EncodeQuery/tanh_layer_1/dense/kernel", "op": "Const", "attr": {"dtype": {"type": "DT_FLOAT"}, "value": {"tensor": {"dtype": "DT_FLOAT", "tensorShape": {"dim": [{"size": "100"}, {"size": "100"}]}}}}}, {"name": "Final/EncodeQuery/tanh_layer_1/dense/bias", "op": "Const", "attr": {"value": {"tensor": {"dtype": "DT_FLOAT", "tensorShape": {"dim": [{"size": "100"}]}}}, "dtype": {"type": "DT_FLOAT"}}}, {"name": "Final/EncodeQuery/tanh_layer_2/dense/kernel", "op": "Const", "attr": {"value": {"tensor": {"dtype": "DT_FLOAT", "tensorShape": {"dim": [{"size": "100"}, {"size": "100"}]}}}, "dtype": {"type": "DT_FLOAT"}}}, {"name": "Final/EncodeQuery/tanh_layer_2/dense/bias", "op": "Const", "attr": {"dtype": {"type": "DT_FLOAT"}, "value": {"tensor": {"dtype": "DT_FLOAT", "tensorShape": {"dim": [{"size": "100"}]}}}}}, {"name": "Final/EncodeResult/mul/x", "op": "Const", "attr": {"value": {"tensor": {"dtype": "DT_FLOAT", "tensorShape": {}}}, "dtype": {"type": "DT_FLOAT"}}}, {"name": "Final/EncodeResult/l2_normalize/Sum/reduction_indices", "op": "Const", "attr": {"dtype": {"type": "DT_INT32"}, "value": {"tensor": {"dtype": "DT_INT32", "tensorShape": {}}}}}, {"name": "Final/EncodeResult/l2_normalize/Maximum/y", "op": "Const", "attr": {"value": {"tensor": {"dtype": "DT_FLOAT", "tensorShape": {}}}, "dtype": {"type": "DT_FLOAT"}}}, {"name": "res_text/EncodeFeature/Transformer/reduce_all_tokens/ExpandDims/dim", "op": "Const", "attr": {"dtype": {"type": "DT_INT32"}, "value": {"tensor": {"dtype": "DT_INT32", "tensorShape": {}}}}}, {"name": "res_text/EncodeFeature/Transformer/TransformerStack/Layer_2/TransformerLayer/FFN/conv2/Tensordot/Const", "op": "Const", "attr": {"dtype": {"type": "DT_INT32"}, "value": {"tensor": {"dtype": "DT_INT32", "tensorShape": {"dim": [{"size": "1"}]}}}}}, {"name": "res_text/EncodeFeature/Transformer/TransformerStack/Layer_2/TransformerLayer/FFN/conv2/Tensordot/axes", "op": "Const", "attr": {"dtype": {"type": "DT_INT32"}, "value": {"tensor": {"dtype": "DT_INT32", "tensorShape": {"dim": [{"size": "1"}]}}}}}, {"name": "res_text/EncodeFeature/Transformer/TransformerStack/Layer_2/TransformerLayer/FFN/conv2/Tensordot/GatherV2_1/axis", "op": "Const", "attr": {"value": {"tensor": {"dtype": "DT_INT32", "tensorShape": {}}}, "dtype": {"type": "DT_INT32"}}}, {"name": "res_text/EncodeFeature/Transformer/TransformerStack/Layer_2/TransformerLayer/FFN/conv2/Tensordot/Const_1", "op": "Const", "attr": {"dtype": {"type": "DT_INT32"}, "value": {"tensor": {"dtype": "DT_INT32", "tensorShape": {"dim": [{"size": "1"}]}}}}}, {"name": "Transformer/Layer_2/TransformerLayer/FFN/conv2/kernel", "op": "Const", "attr": {"dtype": {"type": "DT_FLOAT"}, "value": {"tensor": {"dtype": "DT_FLOAT", "tensorShape": {"dim": [{"size": "256"}, {"size": "120"}]}}}}}, {"name": "res_text/EncodeFeature/Transformer/TransformerStack/Layer_2/TransformerLayer/FFN/conv1/Tensordot/Const", "op": "Const", "attr": {"dtype": {"type": "DT_INT32"}, "value": {"tensor": {"dtype": "DT_INT32", "tensorShape": {"dim": [{"size": "1"}]}}}}}, {"name": "res_text/EncodeFeature/Transformer/TransformerStack/Layer_2/TransformerLayer/FFN/conv1/Tensordot/axes", "op": "Const", "attr": {"value": {"tensor": {"dtype": "DT_INT32", "tensorShape": {"dim": [{"size": "1"}]}}}, "dtype": {"type": "DT_INT32"}}}, {"name": "res_text/EncodeFeature/Transformer/TransformerStack/Layer_2/TransformerLayer/FFN/conv1/Tensordot/GatherV2_1/axis", "op": "Const", "attr": {"value": {"tensor": {"dtype": "DT_INT32", "tensorShape": {}}}, "dtype": {"type": "DT_INT32"}}}, {"name": "res_text/EncodeFeature/Transformer/TransformerStack/Layer_2/TransformerLayer/FFN/conv1/Tensordot/Const_1", "op": "Const", "attr": {"dtype": {"type": "DT_INT32"}, "value": {"tensor": {"dtype": "DT_INT32", "tensorShape": {"dim": [{"size": "1"}]}}}}}, {"name": "Transformer/Layer_2/TransformerLayer/FFN/conv1/kernel", "op": "Const", "attr": {"dtype": {"type": "DT_FLOAT"}, "value": {"tensor": {"dtype": "DT_FLOAT", "tensorShape": {"dim": [{"size": "120"}, {"size": "256"}]}}}}}, {"name": "Transformer/Layer_2/TransformerLayer/FFN/layer_prepostprocess/layer_norm/layer_norm_scale", "op": "Const", "attr": {"dtype": {"type": "DT_FLOAT"}, "value": {"tensor": {"dtype": "DT_FLOAT", "tensorShape": {"dim": [{"size": "120"}]}}}}}, {"name": "res_text/EncodeFeature/Transformer/TransformerStack/Layer_2/TransformerLayer/FFN/layer_prepostprocess/layer_norm/Mean_1/reduction_indices", "op": "Const", "attr": {"dtype": {"type": "DT_INT32"}, "value": {"tensor": {"dtype": "DT_INT32", "tensorShape": {"dim": [{"size": "1"}]}}}}}, {"name": "res_text/EncodeFeature/Transformer/TransformerStack/Layer_2/TransformerLayer/FFN/layer_prepostprocess/layer_norm/Const", "op": "Const", "attr": {"value": {"tensor": {"dtype": "DT_FLOAT", "tensorShape": {}}}, "dtype": {"type": "DT_FLOAT"}}}, {"name": "res_text/EncodeFeature/Transformer/TransformerStack/Layer_2/TransformerLayer/FFN/layer_prepostprocess/layer_norm/Mean/reduction_indices", "op": "Const", "attr": {"dtype": {"type": "DT_INT32"}, "value": {"tensor": {"dtype": "DT_INT32", "tensorShape": {"dim": [{"size": "1"}]}}}}}, {"name": "Transformer/Layer_2/TransformerLayer/FFN/layer_prepostprocess/layer_norm/layer_norm_bias", "op": "Const", "attr": {"value": {"tensor": {"dtype": "DT_FLOAT", "tensorShape": {"dim": [{"size": "120"}]}}}, "dtype": {"type": "DT_FLOAT"}}}, {"name": "res_text/EncodeFeature/Transformer/TransformerStack/Layer_2/TransformerLayer/FFN/ExpandDims/dim", "op": "Const", "attr": {"value": {"tensor": {"dtype": "DT_INT32", "tensorShape": {}}}, "dtype": {"type": "DT_INT32"}}}, {"name": "res_text/EncodeFeature/Transformer/TransformerStack/Layer_2/TransformerLayer/FFN/conv1/Tensordot/free", "op": "Const", "attr": {"value": {"tensor": {"dtype": "DT_INT32", "tensorShape": {"dim": [{"size": "2"}]}}}, "dtype": {"type": "DT_INT32"}}}, {"name": "res_text/EncodeFeature/Transformer/TransformerStack/Layer_2/TransformerLayer/FFN/conv1/Tensordot/GatherV2/axis", "op": "Const", "attr": {"value": {"tensor": {"dtype": "DT_INT32", "tensorShape": {}}}, "dtype": {"type": "DT_INT32"}}}, {"name": "res_text/EncodeFeature/Transformer/TransformerStack/Layer_2/TransformerLayer/FFN/conv1/Tensordot/Const_2", "op": "Const", "attr": {"value": {"tensor": {"dtype": "DT_INT32", "tensorShape": {"dim": [{"size": "1"}]}}}, "dtype": {"type": "DT_INT32"}}}, {"name": "res_text/EncodeFeature/Transformer/TransformerStack/Layer_2/TransformerLayer/FFN/conv1/Tensordot/concat_1/axis", "op": "Const", "attr": {"value": {"tensor": {"dtype": "DT_INT32", "tensorShape": {}}}, "dtype": {"type": "DT_INT32"}}}, {"name": "Transformer/Layer_2/TransformerLayer/FFN/conv1/bias", "op": "Const", "attr": {"dtype": {"type": "DT_FLOAT"}, "value": {"tensor": {"dtype": "DT_FLOAT", "tensorShape": {"dim": [{"size": "256"}]}}}}}, {"name": "res_text/EncodeFeature/Transformer/TransformerStack/Layer_2/TransformerLayer/FFN/conv2/Tensordot/free", "op": "Const", "attr": {"dtype": {"type": "DT_INT32"}, "value": {"tensor": {"dtype": "DT_INT32", "tensorShape": {"dim": [{"size": "2"}]}}}}}, {"name": "res_text/EncodeFeature/Transformer/TransformerStack/Layer_2/TransformerLayer/FFN/conv2/Tensordot/GatherV2/axis", "op": "Const", "attr": {"value": {"tensor": {"dtype": "DT_INT32", "tensorShape": {}}}, "dtype": {"type": "DT_INT32"}}}, {"name": "res_text/EncodeFeature/Transformer/TransformerStack/Layer_2/TransformerLayer/FFN/conv2/Tensordot/Const_2", "op": "Const", "attr": {"value": {"tensor": {"dtype": "DT_INT32", "tensorShape": {"dim": [{"size": "1"}]}}}, "dtype": {"type": "DT_INT32"}}}, {"name": "res_text/EncodeFeature/Transformer/TransformerStack/Layer_2/TransformerLayer/FFN/conv2/Tensordot/concat_1/axis", "op": "Const", "attr": {"value": {"tensor": {"dtype": "DT_INT32", "tensorShape": {}}}, "dtype": {"type": "DT_INT32"}}}, {"name": "Transformer/Layer_2/TransformerLayer/FFN/conv2/bias", "op": "Const", "attr": {"dtype": {"type": "DT_FLOAT"}, "value": {"tensor": {"dtype": "DT_FLOAT", "tensorShape": {"dim": [{"size": "120"}]}}}}}, {"name": "Transformer/Layer_2/TransformerLayer/MultiheadAttention/dense/kernel", "op": "Const", "attr": {"value": {"tensor": {"dtype": "DT_FLOAT", "tensorShape": {"dim": [{"size": "120"}, {"size": "120"}]}}}, "dtype": {"type": "DT_FLOAT"}}}, {"name": "Transformer/Layer_2/TransformerLayer/MultiheadAttention/dense/bias", "op": "Const", "attr": {"dtype": {"type": "DT_FLOAT"}, "value": {"tensor": {"dtype": "DT_FLOAT", "tensorShape": {"dim": [{"size": "120"}]}}}}}, {"name": "res_text/EncodeFeature/Transformer/TransformerStack/Layer_2/TransformerLayer/MultiheadAttention/to_3d/strided_slice/stack", "op": "Const", "attr": {"value": {"tensor": {"dtype": "DT_INT32", "tensorShape": {"dim": [{"size": "1"}]}}}, "dtype": {"type": "DT_INT32"}}}, {"name": "res_text/EncodeFeature/Transformer/TransformerStack/Layer_2/TransformerLayer/MultiheadAttention/to_3d/strided_slice/stack_1", "op": "Const", "attr": {"dtype": {"type": "DT_INT32"}, "value": {"tensor": {"dtype": "DT_INT32", "tensorShape": {"dim": [{"size": "1"}]}}}}}, {"name": "res_text/EncodeFeature/Transformer/TransformerStack/Layer_2/TransformerLayer/MultiheadAttention/to_3d/strided_slice/stack_2", "op": "Const", "attr": {"dtype": {"type": "DT_INT32"}, "value": {"tensor": {"dtype": "DT_INT32", "tensorShape": {"dim": [{"size": "1"}]}}}}}, {"name": "res_text/EncodeFeature/Transformer/TransformerStack/Layer_2/TransformerLayer/MultiheadAttention/to_3d/Reshape/shape/1", "op": "Const", "attr": {"dtype": {"type": "DT_INT32"}, "value": {"tensor": {"dtype": "DT_INT32", "tensorShape": {}}}}}, {"name": "res_text/EncodeFeature/Transformer/TransformerStack/Layer_2/TransformerLayer/MultiheadAttention/to_3d/Reshape/shape/2", "op": "Const", "attr": {"dtype": {"type": "DT_INT32"}, "value": {"tensor": {"dtype": "DT_INT32", "tensorShape": {}}}}}, {"name": "res_text/EncodeFeature/Transformer/TransformerStack/Layer_2/TransformerLayer/MultiheadAttention/split_heads/split_last_dimension/strided_slice/stack", "op": "Const", "attr": {"value": {"tensor": {"dtype": "DT_INT32", "tensorShape": {"dim": [{"size": "1"}]}}}, "dtype": {"type": "DT_INT32"}}}, {"name": "res_text/EncodeFeature/Transformer/TransformerStack/Layer_2/TransformerLayer/MultiheadAttention/split_heads/split_last_dimension/strided_slice/stack_1", "op": "Const", "attr": {"dtype": {"type": "DT_INT32"}, "value": {"tensor": {"dtype": "DT_INT32", "tensorShape": {"dim": [{"size": "1"}]}}}}}, {"name": "res_text/EncodeFeature/Transformer/TransformerStack/Layer_2/TransformerLayer/MultiheadAttention/split_heads/split_last_dimension/strided_slice/stack_2", "op": "Const", "attr": {"value": {"tensor": {"dtype": "DT_INT32", "tensorShape": {"dim": [{"size": "1"}]}}}, "dtype": {"type": "DT_INT32"}}}, {"name": "res_text/EncodeFeature/Transformer/TransformerStack/Layer_2/TransformerLayer/MultiheadAttention/split_heads/split_last_dimension/Reshape/shape/1", "op": "Const", "attr": {"value": {"tensor": {"dtype": "DT_INT32", "tensorShape": {}}}, "dtype": {"type": "DT_INT32"}}}, {"name": "res_text/EncodeFeature/Transformer/TransformerStack/Layer_2/TransformerLayer/MultiheadAttention/split_heads/split_last_dimension/Reshape/shape/2", "op": "Const", "attr": {"dtype": {"type": "DT_INT32"}, "value": {"tensor": {"dtype": "DT_INT32", "tensorShape": {}}}}}, {"name": "res_text/EncodeFeature/Transformer/TransformerStack/Layer_2/TransformerLayer/MultiheadAttention/split_heads/split_last_dimension/Reshape/shape/3", "op": "Const", "attr": {"value": {"tensor": {"dtype": "DT_INT32", "tensorShape": {}}}, "dtype": {"type": "DT_INT32"}}}, {"name": "res_text/EncodeFeature/Transformer/TransformerStack/Layer_2/TransformerLayer/MultiheadAttention/split_heads/transpose/perm", "op": "Const", "attr": {"value": {"tensor": {"dtype": "DT_INT32", "tensorShape": {"dim": [{"size": "4"}]}}}, "dtype": {"type": "DT_INT32"}}}, {"name": "res_text/EncodeFeature/Transformer/TransformerStack/Layer_2/TransformerLayer/MultiheadAttention/mul/y", "op": "Const", "attr": {"dtype": {"type": "DT_FLOAT"}, "value": {"tensor": {"dtype": "DT_FLOAT", "tensorShape": {}}}}}, {"name": "Transformer/Layer_2/TransformerLayer/MultiheadAttention/dense_1/kernel", "op": "Const", "attr": {"value": {"tensor": {"dtype": "DT_FLOAT", "tensorShape": {"dim": [{"size": "120"}, {"size": "120"}]}}}, "dtype": {"type": "DT_FLOAT"}}}, {"name": "Transformer/Layer_2/TransformerLayer/MultiheadAttention/dense_1/bias", "op": "Const", "attr": {"value": {"tensor": {"dtype": "DT_FLOAT", "tensorShape": {"dim": [{"size": "120"}]}}}, "dtype": {"type": "DT_FLOAT"}}}, {"name": "res_text/EncodeFeature/Transformer/TransformerStack/Layer_2/TransformerLayer/MultiheadAttention/to_3d_1/strided_slice/stack", "op": "Const", "attr": {"value": {"tensor": {"dtype": "DT_INT32", "tensorShape": {"dim": [{"size": "1"}]}}}, "dtype": {"type": "DT_INT32"}}}, {"name": "res_text/EncodeFeature/Transformer/TransformerStack/Layer_2/TransformerLayer/MultiheadAttention/to_3d_1/strided_slice/stack_1", "op": "Const", "attr": {"dtype": {"type": "DT_INT32"}, "value": {"tensor": {"dtype": "DT_INT32", "tensorShape": {"dim": [{"size": "1"}]}}}}}, {"name": "res_text/EncodeFeature/Transformer/TransformerStack/Layer_2/TransformerLayer/MultiheadAttention/to_3d_1/strided_slice/stack_2", "op": "Const", "attr": {"dtype": {"type": "DT_INT32"}, "value": {"tensor": {"dtype": "DT_INT32", "tensorShape": {"dim": [{"size": "1"}]}}}}}, {"name": "res_text/EncodeFeature/Transformer/TransformerStack/Layer_2/TransformerLayer/MultiheadAttention/to_3d_1/Reshape/shape/1", "op": "Const", "attr": {"value": {"tensor": {"dtype": "DT_INT32", "tensorShape": {}}}, "dtype": {"type": "DT_INT32"}}}, {"name": "res_text/EncodeFeature/Transformer/TransformerStack/Layer_2/TransformerLayer/MultiheadAttention/to_3d_1/Reshape/shape/2", "op": "Const", "attr": {"value": {"tensor": {"dtype": "DT_INT32", "tensorShape": {}}}, "dtype": {"type": "DT_INT32"}}}, {"name": "res_text/EncodeFeature/Transformer/TransformerStack/Layer_2/TransformerLayer/MultiheadAttention/split_heads_1/split_last_dimension/strided_slice/stack", "op": "Const", "attr": {"value": {"tensor": {"dtype": "DT_INT32", "tensorShape": {"dim": [{"size": "1"}]}}}, "dtype": {"type": "DT_INT32"}}}, {"name": "res_text/EncodeFeature/Transformer/TransformerStack/Layer_2/TransformerLayer/MultiheadAttention/split_heads_1/split_last_dimension/strided_slice/stack_1", "op": "Const", "attr": {"dtype": {"type": "DT_INT32"}, "value": {"tensor": {"dtype": "DT_INT32", "tensorShape": {"dim": [{"size": "1"}]}}}}}, {"name": "res_text/EncodeFeature/Transformer/TransformerStack/Layer_2/TransformerLayer/MultiheadAttention/split_heads_1/split_last_dimension/strided_slice/stack_2", "op": "Const", "attr": {"value": {"tensor": {"dtype": "DT_INT32", "tensorShape": {"dim": [{"size": "1"}]}}}, "dtype": {"type": "DT_INT32"}}}, {"name": "res_text/EncodeFeature/Transformer/TransformerStack/Layer_2/TransformerLayer/MultiheadAttention/split_heads_1/split_last_dimension/Reshape/shape/1", "op": "Const", "attr": {"dtype": {"type": "DT_INT32"}, "value": {"tensor": {"dtype": "DT_INT32", "tensorShape": {}}}}}, {"name": "res_text/EncodeFeature/Transformer/TransformerStack/Layer_2/TransformerLayer/MultiheadAttention/split_heads_1/split_last_dimension/Reshape/shape/2", "op": "Const", "attr": {"value": {"tensor": {"dtype": "DT_INT32", "tensorShape": {}}}, "dtype": {"type": "DT_INT32"}}}, {"name": "res_text/EncodeFeature/Transformer/TransformerStack/Layer_2/TransformerLayer/MultiheadAttention/split_heads_1/split_last_dimension/Reshape/shape/3", "op": "Const", "attr": {"value": {"tensor": {"dtype": "DT_INT32", "tensorShape": {}}}, "dtype": {"type": "DT_INT32"}}}, {"name": "res_text/EncodeFeature/Transformer/TransformerStack/Layer_2/TransformerLayer/MultiheadAttention/split_heads_1/transpose/perm", "op": "Const", "attr": {"dtype": {"type": "DT_INT32"}, "value": {"tensor": {"dtype": "DT_INT32", "tensorShape": {"dim": [{"size": "4"}]}}}}}, {"name": "res_text/EncodeFeature/Transformer/TransformerStack/Layer_2/TransformerLayer/attention_bias_ignore_padding/mul/y", "op": "Const", "attr": {"value": {"tensor": {"dtype": "DT_FLOAT", "tensorShape": {}}}, "dtype": {"type": "DT_FLOAT"}}}, {"name": "res_text/EncodeFeature/Transformer/TransformerStack/Layer_2/TransformerLayer/attention_bias_ignore_padding/ExpandDims/dim", "op": "Const", "attr": {"dtype": {"type": "DT_INT32"}, "value": {"tensor": {"dtype": "DT_INT32", "tensorShape": {}}}}}, {"name": "res_text/EncodeFeature/Transformer/TransformerStack/Layer_2/TransformerLayer/attention_bias_ignore_padding/ExpandDims_1/dim", "op": "Const", "attr": {"dtype": {"type": "DT_INT32"}, "value": {"tensor": {"dtype": "DT_INT32", "tensorShape": {}}}}}, {"name": "Transformer/Layer_2/TransformerLayer/layer_prepostprocess/layer_norm/layer_norm_scale", "op": "Const", "attr": {"value": {"tensor": {"dtype": "DT_FLOAT", "tensorShape": {"dim": [{"size": "120"}]}}}, "dtype": {"type": "DT_FLOAT"}}}, {"name": "res_text/EncodeFeature/Transformer/TransformerStack/Layer_2/TransformerLayer/layer_prepostprocess/layer_norm/Mean_1/reduction_indices", "op": "Const", "attr": {"dtype": {"type": "DT_INT32"}, "value": {"tensor": {"dtype": "DT_INT32", "tensorShape": {"dim": [{"size": "1"}]}}}}}, {"name": "res_text/EncodeFeature/Transformer/TransformerStack/Layer_2/TransformerLayer/layer_prepostprocess/layer_norm/Const", "op": "Const", "attr": {"dtype": {"type": "DT_FLOAT"}, "value": {"tensor": {"dtype": "DT_FLOAT", "tensorShape": {}}}}}, {"name": "res_text/EncodeFeature/Transformer/TransformerStack/Layer_2/TransformerLayer/layer_prepostprocess/layer_norm/Mean/reduction_indices", "op": "Const", "attr": {"dtype": {"type": "DT_INT32"}, "value": {"tensor": {"dtype": "DT_INT32", "tensorShape": {"dim": [{"size": "1"}]}}}}}, {"name": "Transformer/Layer_2/TransformerLayer/layer_prepostprocess/layer_norm/layer_norm_bias", "op": "Const", "attr": {"dtype": {"type": "DT_FLOAT"}, "value": {"tensor": {"dtype": "DT_FLOAT", "tensorShape": {"dim": [{"size": "120"}]}}}}}, {"name": "Transformer/Layer_2/TransformerLayer/MultiheadAttention/dense_2/kernel", "op": "Const", "attr": {"value": {"tensor": {"dtype": "DT_FLOAT", "tensorShape": {"dim": [{"size": "120"}, {"size": "120"}]}}}, "dtype": {"type": "DT_FLOAT"}}}, {"name": "Transformer/Layer_2/TransformerLayer/MultiheadAttention/dense_2/bias", "op": "Const", "attr": {"dtype": {"type": "DT_FLOAT"}, "value": {"tensor": {"dtype": "DT_FLOAT", "tensorShape": {"dim": [{"size": "120"}]}}}}}, {"name": "res_text/EncodeFeature/Transformer/TransformerStack/Layer_2/TransformerLayer/MultiheadAttention/to_3d_2/strided_slice/stack", "op": "Const", "attr": {"value": {"tensor": {"dtype": "DT_INT32", "tensorShape": {"dim": [{"size": "1"}]}}}, "dtype": {"type": "DT_INT32"}}}, {"name": "res_text/EncodeFeature/Transformer/TransformerStack/Layer_2/TransformerLayer/MultiheadAttention/to_3d_2/strided_slice/stack_1", "op": "Const", "attr": {"value": {"tensor": {"dtype": "DT_INT32", "tensorShape": {"dim": [{"size": "1"}]}}}, "dtype": {"type": "DT_INT32"}}}, {"name": "res_text/EncodeFeature/Transformer/TransformerStack/Layer_2/TransformerLayer/MultiheadAttention/to_3d_2/strided_slice/stack_2", "op": "Const", "attr": {"dtype": {"type": "DT_INT32"}, "value": {"tensor": {"dtype": "DT_INT32", "tensorShape": {"dim": [{"size": "1"}]}}}}}, {"name": "res_text/EncodeFeature/Transformer/TransformerStack/Layer_2/TransformerLayer/MultiheadAttention/to_3d_2/Reshape/shape/1", "op": "Const", "attr": {"dtype": {"type": "DT_INT32"}, "value": {"tensor": {"dtype": "DT_INT32", "tensorShape": {}}}}}, {"name": "res_text/EncodeFeature/Transformer/TransformerStack/Layer_2/TransformerLayer/MultiheadAttention/to_3d_2/Reshape/shape/2", "op": "Const", "attr": {"dtype": {"type": "DT_INT32"}, "value": {"tensor": {"dtype": "DT_INT32", "tensorShape": {}}}}}, {"name": "res_text/EncodeFeature/Transformer/TransformerStack/Layer_2/TransformerLayer/MultiheadAttention/split_heads_2/split_last_dimension/strided_slice/stack", "op": "Const", "attr": {"dtype": {"type": "DT_INT32"}, "value": {"tensor": {"dtype": "DT_INT32", "tensorShape": {"dim": [{"size": "1"}]}}}}}, {"name": "res_text/EncodeFeature/Transformer/TransformerStack/Layer_2/TransformerLayer/MultiheadAttention/split_heads_2/split_last_dimension/strided_slice/stack_1", "op": "Const", "attr": {"value": {"tensor": {"dtype": "DT_INT32", "tensorShape": {"dim": [{"size": "1"}]}}}, "dtype": {"type": "DT_INT32"}}}, {"name": "res_text/EncodeFeature/Transformer/TransformerStack/Layer_2/TransformerLayer/MultiheadAttention/split_heads_2/split_last_dimension/strided_slice/stack_2", "op": "Const", "attr": {"dtype": {"type": "DT_INT32"}, "value": {"tensor": {"dtype": "DT_INT32", "tensorShape": {"dim": [{"size": "1"}]}}}}}, {"name": "res_text/EncodeFeature/Transformer/TransformerStack/Layer_2/TransformerLayer/MultiheadAttention/split_heads_2/split_last_dimension/Reshape/shape/1", "op": "Const", "attr": {"dtype": {"type": "DT_INT32"}, "value": {"tensor": {"dtype": "DT_INT32", "tensorShape": {}}}}}, {"name": "res_text/EncodeFeature/Transformer/TransformerStack/Layer_2/TransformerLayer/MultiheadAttention/split_heads_2/split_last_dimension/Reshape/shape/2", "op": "Const", "attr": {"value": {"tensor": {"dtype": "DT_INT32", "tensorShape": {}}}, "dtype": {"type": "DT_INT32"}}}, {"name": "res_text/EncodeFeature/Transformer/TransformerStack/Layer_2/TransformerLayer/MultiheadAttention/split_heads_2/split_last_dimension/Reshape/shape/3", "op": "Const", "attr": {"dtype": {"type": "DT_INT32"}, "value": {"tensor": {"dtype": "DT_INT32", "tensorShape": {}}}}}, {"name": "res_text/EncodeFeature/Transformer/TransformerStack/Layer_2/TransformerLayer/MultiheadAttention/split_heads_2/transpose/perm", "op": "Const", "attr": {"dtype": {"type": "DT_INT32"}, "value": {"tensor": {"dtype": "DT_INT32", "tensorShape": {"dim": [{"size": "4"}]}}}}}, {"name": "res_text/EncodeFeature/Transformer/TransformerStack/Layer_2/TransformerLayer/MultiheadAttention/combine_heads/transpose/perm", "op": "Const", "attr": {"value": {"tensor": {"dtype": "DT_INT32", "tensorShape": {"dim": [{"size": "4"}]}}}, "dtype": {"type": "DT_INT32"}}}, {"name": "res_text/EncodeFeature/Transformer/TransformerStack/Layer_2/TransformerLayer/MultiheadAttention/to_2d/strided_slice/stack", "op": "Const", "attr": {"dtype": {"type": "DT_INT32"}, "value": {"tensor": {"dtype": "DT_INT32", "tensorShape": {"dim": [{"size": "1"}]}}}}}, {"name": "res_text/EncodeFeature/Transformer/TransformerStack/Layer_2/TransformerLayer/MultiheadAttention/to_2d/strided_slice/stack_1", "op": "Const", "attr": {"value": {"tensor": {"dtype": "DT_INT32", "tensorShape": {"dim": [{"size": "1"}]}}}, "dtype": {"type": "DT_INT32"}}}, {"name": "res_text/EncodeFeature/Transformer/TransformerStack/Layer_2/TransformerLayer/MultiheadAttention/to_2d/strided_slice/stack_2", "op": "Const", "attr": {"value": {"tensor": {"dtype": "DT_INT32", "tensorShape": {"dim": [{"size": "1"}]}}}, "dtype": {"type": "DT_INT32"}}}, {"name": "res_text/EncodeFeature/Transformer/TransformerStack/Layer_2/TransformerLayer/MultiheadAttention/to_2d/mul/y", "op": "Const", "attr": {"value": {"tensor": {"dtype": "DT_INT32", "tensorShape": {}}}, "dtype": {"type": "DT_INT32"}}}, {"name": "res_text/EncodeFeature/Transformer/TransformerStack/Layer_2/TransformerLayer/MultiheadAttention/to_2d/Reshape/shape/1", "op": "Const", "attr": {"value": {"tensor": {"dtype": "DT_INT32", "tensorShape": {}}}, "dtype": {"type": "DT_INT32"}}}, {"name": "Transformer/Layer_2/TransformerLayer/MultiheadAttention/output_transform/kernel", "op": "Const", "attr": {"value": {"tensor": {"dtype": "DT_FLOAT", "tensorShape": {"dim": [{"size": "120"}, {"size": "120"}]}}}, "dtype": {"type": "DT_FLOAT"}}}, {"name": "Transformer/Layer_2/TransformerLayer/MultiheadAttention/output_transform/bias", "op": "Const", "attr": {"value": {"tensor": {"dtype": "DT_FLOAT", "tensorShape": {"dim": [{"size": "120"}]}}}, "dtype": {"type": "DT_FLOAT"}}}, {"name": "res_text/EncodeFeature/Transformer/TransformerStack/Layer_1/TransformerLayer/FFN/conv2/Tensordot/Const", "op": "Const", "attr": {"value": {"tensor": {"dtype": "DT_INT32", "tensorShape": {"dim": [{"size": "1"}]}}}, "dtype": {"type": "DT_INT32"}}}, {"name": "res_text/EncodeFeature/Transformer/TransformerStack/Layer_1/TransformerLayer/FFN/conv2/Tensordot/axes", "op": "Const", "attr": {"value": {"tensor": {"dtype": "DT_INT32", "tensorShape": {"dim": [{"size": "1"}]}}}, "dtype": {"type": "DT_INT32"}}}, {"name": "res_text/EncodeFeature/Transformer/TransformerStack/Layer_1/TransformerLayer/FFN/conv2/Tensordot/GatherV2_1/axis", "op": "Const", "attr": {"dtype": {"type": "DT_INT32"}, "value": {"tensor": {"dtype": "DT_INT32", "tensorShape": {}}}}}, {"name": "res_text/EncodeFeature/Transformer/TransformerStack/Layer_1/TransformerLayer/FFN/conv2/Tensordot/Const_1", "op": "Const", "attr": {"dtype": {"type": "DT_INT32"}, "value": {"tensor": {"dtype": "DT_INT32", "tensorShape": {"dim": [{"size": "1"}]}}}}}, {"name": "Transformer/Layer_1/TransformerLayer/FFN/conv2/kernel", "op": "Const", "attr": {"value": {"tensor": {"dtype": "DT_FLOAT", "tensorShape": {"dim": [{"size": "256"}, {"size": "120"}]}}}, "dtype": {"type": "DT_FLOAT"}}}, {"name": "res_text/EncodeFeature/Transformer/TransformerStack/Layer_1/TransformerLayer/FFN/conv1/Tensordot/Const", "op": "Const", "attr": {"dtype": {"type": "DT_INT32"}, "value": {"tensor": {"dtype": "DT_INT32", "tensorShape": {"dim": [{"size": "1"}]}}}}}, {"name": "res_text/EncodeFeature/Transformer/TransformerStack/Layer_1/TransformerLayer/FFN/conv1/Tensordot/axes", "op": "Const", "attr": {"dtype": {"type": "DT_INT32"}, "value": {"tensor": {"dtype": "DT_INT32", "tensorShape": {"dim": [{"size": "1"}]}}}}}, {"name": "res_text/EncodeFeature/Transformer/TransformerStack/Layer_1/TransformerLayer/FFN/conv1/Tensordot/GatherV2_1/axis", "op": "Const", "attr": {"value": {"tensor": {"dtype": "DT_INT32", "tensorShape": {}}}, "dtype": {"type": "DT_INT32"}}}, {"name": "res_text/EncodeFeature/Transformer/TransformerStack/Layer_1/TransformerLayer/FFN/conv1/Tensordot/Const_1", "op": "Const", "attr": {"value": {"tensor": {"dtype": "DT_INT32", "tensorShape": {"dim": [{"size": "1"}]}}}, "dtype": {"type": "DT_INT32"}}}, {"name": "Transformer/Layer_1/TransformerLayer/FFN/conv1/kernel", "op": "Const", "attr": {"dtype": {"type": "DT_FLOAT"}, "value": {"tensor": {"dtype": "DT_FLOAT", "tensorShape": {"dim": [{"size": "120"}, {"size": "256"}]}}}}}, {"name": "Transformer/Layer_1/TransformerLayer/FFN/layer_prepostprocess/layer_norm/layer_norm_scale", "op": "Const", "attr": {"value": {"tensor": {"dtype": "DT_FLOAT", "tensorShape": {"dim": [{"size": "120"}]}}}, "dtype": {"type": "DT_FLOAT"}}}, {"name": "res_text/EncodeFeature/Transformer/TransformerStack/Layer_1/TransformerLayer/FFN/layer_prepostprocess/layer_norm/Mean_1/reduction_indices", "op": "Const", "attr": {"value": {"tensor": {"dtype": "DT_INT32", "tensorShape": {"dim": [{"size": "1"}]}}}, "dtype": {"type": "DT_INT32"}}}, {"name": "res_text/EncodeFeature/Transformer/TransformerStack/Layer_1/TransformerLayer/FFN/layer_prepostprocess/layer_norm/Const", "op": "Const", "attr": {"dtype": {"type": "DT_FLOAT"}, "value": {"tensor": {"dtype": "DT_FLOAT", "tensorShape": {}}}}}, {"name": "res_text/EncodeFeature/Transformer/TransformerStack/Layer_1/TransformerLayer/FFN/layer_prepostprocess/layer_norm/Mean/reduction_indices", "op": "Const", "attr": {"value": {"tensor": {"dtype": "DT_INT32", "tensorShape": {"dim": [{"size": "1"}]}}}, "dtype": {"type": "DT_INT32"}}}, {"name": "Transformer/Layer_1/TransformerLayer/FFN/layer_prepostprocess/layer_norm/layer_norm_bias", "op": "Const", "attr": {"dtype": {"type": "DT_FLOAT"}, "value": {"tensor": {"dtype": "DT_FLOAT", "tensorShape": {"dim": [{"size": "120"}]}}}}}, {"name": "res_text/EncodeFeature/Transformer/TransformerStack/Layer_1/TransformerLayer/FFN/ExpandDims/dim", "op": "Const", "attr": {"dtype": {"type": "DT_INT32"}, "value": {"tensor": {"dtype": "DT_INT32", "tensorShape": {}}}}}, {"name": "res_text/EncodeFeature/Transformer/TransformerStack/Layer_1/TransformerLayer/FFN/conv1/Tensordot/free", "op": "Const", "attr": {"dtype": {"type": "DT_INT32"}, "value": {"tensor": {"dtype": "DT_INT32", "tensorShape": {"dim": [{"size": "2"}]}}}}}, {"name": "res_text/EncodeFeature/Transformer/TransformerStack/Layer_1/TransformerLayer/FFN/conv1/Tensordot/GatherV2/axis", "op": "Const", "attr": {"dtype": {"type": "DT_INT32"}, "value": {"tensor": {"dtype": "DT_INT32", "tensorShape": {}}}}}, {"name": "res_text/EncodeFeature/Transformer/TransformerStack/Layer_1/TransformerLayer/FFN/conv1/Tensordot/Const_2", "op": "Const", "attr": {"dtype": {"type": "DT_INT32"}, "value": {"tensor": {"dtype": "DT_INT32", "tensorShape": {"dim": [{"size": "1"}]}}}}}, {"name": "res_text/EncodeFeature/Transformer/TransformerStack/Layer_1/TransformerLayer/FFN/conv1/Tensordot/concat_1/axis", "op": "Const", "attr": {"value": {"tensor": {"dtype": "DT_INT32", "tensorShape": {}}}, "dtype": {"type": "DT_INT32"}}}, {"name": "Transformer/Layer_1/TransformerLayer/FFN/conv1/bias", "op": "Const", "attr": {"dtype": {"type": "DT_FLOAT"}, "value": {"tensor": {"dtype": "DT_FLOAT", "tensorShape": {"dim": [{"size": "256"}]}}}}}, {"name": "res_text/EncodeFeature/Transformer/TransformerStack/Layer_1/TransformerLayer/FFN/conv2/Tensordot/free", "op": "Const", "attr": {"dtype": {"type": "DT_INT32"}, "value": {"tensor": {"dtype": "DT_INT32", "tensorShape": {"dim": [{"size": "2"}]}}}}}, {"name": "res_text/EncodeFeature/Transformer/TransformerStack/Layer_1/TransformerLayer/FFN/conv2/Tensordot/GatherV2/axis", "op": "Const", "attr": {"dtype": {"type": "DT_INT32"}, "value": {"tensor": {"dtype": "DT_INT32", "tensorShape": {}}}}}, {"name": "res_text/EncodeFeature/Transformer/TransformerStack/Layer_1/TransformerLayer/FFN/conv2/Tensordot/Const_2", "op": "Const", "attr": {"value": {"tensor": {"dtype": "DT_INT32", "tensorShape": {"dim": [{"size": "1"}]}}}, "dtype": {"type": "DT_INT32"}}}, {"name": "res_text/EncodeFeature/Transformer/TransformerStack/Layer_1/TransformerLayer/FFN/conv2/Tensordot/concat_1/axis", "op": "Const", "attr": {"value": {"tensor": {"dtype": "DT_INT32", "tensorShape": {}}}, "dtype": {"type": "DT_INT32"}}}, {"name": "Transformer/Layer_1/TransformerLayer/FFN/conv2/bias", "op": "Const", "attr": {"dtype": {"type": "DT_FLOAT"}, "value": {"tensor": {"dtype": "DT_FLOAT", "tensorShape": {"dim": [{"size": "120"}]}}}}}, {"name": "Transformer/Layer_1/TransformerLayer/MultiheadAttention/dense/kernel", "op": "Const", "attr": {"dtype": {"type": "DT_FLOAT"}, "value": {"tensor": {"dtype": "DT_FLOAT", "tensorShape": {"dim": [{"size": "120"}, {"size": "120"}]}}}}}, {"name": "Transformer/Layer_1/TransformerLayer/MultiheadAttention/dense/bias", "op": "Const", "attr": {"value": {"tensor": {"dtype": "DT_FLOAT", "tensorShape": {"dim": [{"size": "120"}]}}}, "dtype": {"type": "DT_FLOAT"}}}, {"name": "res_text/EncodeFeature/Transformer/TransformerStack/Layer_1/TransformerLayer/MultiheadAttention/to_3d/strided_slice/stack", "op": "Const", "attr": {"value": {"tensor": {"dtype": "DT_INT32", "tensorShape": {"dim": [{"size": "1"}]}}}, "dtype": {"type": "DT_INT32"}}}, {"name": "res_text/EncodeFeature/Transformer/TransformerStack/Layer_1/TransformerLayer/MultiheadAttention/to_3d/strided_slice/stack_1", "op": "Const", "attr": {"dtype": {"type": "DT_INT32"}, "value": {"tensor": {"dtype": "DT_INT32", "tensorShape": {"dim": [{"size": "1"}]}}}}}, {"name": "res_text/EncodeFeature/Transformer/TransformerStack/Layer_1/TransformerLayer/MultiheadAttention/to_3d/strided_slice/stack_2", "op": "Const", "attr": {"dtype": {"type": "DT_INT32"}, "value": {"tensor": {"dtype": "DT_INT32", "tensorShape": {"dim": [{"size": "1"}]}}}}}, {"name": "res_text/EncodeFeature/Transformer/TransformerStack/Layer_1/TransformerLayer/MultiheadAttention/to_3d/Reshape/shape/1", "op": "Const", "attr": {"value": {"tensor": {"dtype": "DT_INT32", "tensorShape": {}}}, "dtype": {"type": "DT_INT32"}}}, {"name": "res_text/EncodeFeature/Transformer/TransformerStack/Layer_1/TransformerLayer/MultiheadAttention/to_3d/Reshape/shape/2", "op": "Const", "attr": {"dtype": {"type": "DT_INT32"}, "value": {"tensor": {"dtype": "DT_INT32", "tensorShape": {}}}}}, {"name": "res_text/EncodeFeature/Transformer/TransformerStack/Layer_1/TransformerLayer/MultiheadAttention/split_heads/split_last_dimension/strided_slice/stack", "op": "Const", "attr": {"dtype": {"type": "DT_INT32"}, "value": {"tensor": {"dtype": "DT_INT32", "tensorShape": {"dim": [{"size": "1"}]}}}}}, {"name": "res_text/EncodeFeature/Transformer/TransformerStack/Layer_1/TransformerLayer/MultiheadAttention/split_heads/split_last_dimension/strided_slice/stack_1", "op": "Const", "attr": {"dtype": {"type": "DT_INT32"}, "value": {"tensor": {"dtype": "DT_INT32", "tensorShape": {"dim": [{"size": "1"}]}}}}}, {"name": "res_text/EncodeFeature/Transformer/TransformerStack/Layer_1/TransformerLayer/MultiheadAttention/split_heads/split_last_dimension/strided_slice/stack_2", "op": "Const", "attr": {"dtype": {"type": "DT_INT32"}, "value": {"tensor": {"dtype": "DT_INT32", "tensorShape": {"dim": [{"size": "1"}]}}}}}, {"name": "res_text/EncodeFeature/Transformer/TransformerStack/Layer_1/TransformerLayer/MultiheadAttention/split_heads/split_last_dimension/Reshape/shape/1", "op": "Const", "attr": {"value": {"tensor": {"dtype": "DT_INT32", "tensorShape": {}}}, "dtype": {"type": "DT_INT32"}}}, {"name": "res_text/EncodeFeature/Transformer/TransformerStack/Layer_1/TransformerLayer/MultiheadAttention/split_heads/split_last_dimension/Reshape/shape/2", "op": "Const", "attr": {"dtype": {"type": "DT_INT32"}, "value": {"tensor": {"dtype": "DT_INT32", "tensorShape": {}}}}}, {"name": "res_text/EncodeFeature/Transformer/TransformerStack/Layer_1/TransformerLayer/MultiheadAttention/split_heads/split_last_dimension/Reshape/shape/3", "op": "Const", "attr": {"value": {"tensor": {"dtype": "DT_INT32", "tensorShape": {}}}, "dtype": {"type": "DT_INT32"}}}, {"name": "res_text/EncodeFeature/Transformer/TransformerStack/Layer_1/TransformerLayer/MultiheadAttention/split_heads/transpose/perm", "op": "Const", "attr": {"value": {"tensor": {"dtype": "DT_INT32", "tensorShape": {"dim": [{"size": "4"}]}}}, "dtype": {"type": "DT_INT32"}}}, {"name": "res_text/EncodeFeature/Transformer/TransformerStack/Layer_1/TransformerLayer/MultiheadAttention/mul/y", "op": "Const", "attr": {"value": {"tensor": {"dtype": "DT_FLOAT", "tensorShape": {}}}, "dtype": {"type": "DT_FLOAT"}}}, {"name": "Transformer/Layer_1/TransformerLayer/MultiheadAttention/dense_1/kernel", "op": "Const", "attr": {"dtype": {"type": "DT_FLOAT"}, "value": {"tensor": {"dtype": "DT_FLOAT", "tensorShape": {"dim": [{"size": "120"}, {"size": "120"}]}}}}}, {"name": "Transformer/Layer_1/TransformerLayer/MultiheadAttention/dense_1/bias", "op": "Const", "attr": {"value": {"tensor": {"dtype": "DT_FLOAT", "tensorShape": {"dim": [{"size": "120"}]}}}, "dtype": {"type": "DT_FLOAT"}}}, {"name": "res_text/EncodeFeature/Transformer/TransformerStack/Layer_1/TransformerLayer/MultiheadAttention/to_3d_1/strided_slice/stack", "op": "Const", "attr": {"dtype": {"type": "DT_INT32"}, "value": {"tensor": {"dtype": "DT_INT32", "tensorShape": {"dim": [{"size": "1"}]}}}}}, {"name": "res_text/EncodeFeature/Transformer/TransformerStack/Layer_1/TransformerLayer/MultiheadAttention/to_3d_1/strided_slice/stack_1", "op": "Const", "attr": {"value": {"tensor": {"dtype": "DT_INT32", "tensorShape": {"dim": [{"size": "1"}]}}}, "dtype": {"type": "DT_INT32"}}}, {"name": "res_text/EncodeFeature/Transformer/TransformerStack/Layer_1/TransformerLayer/MultiheadAttention/to_3d_1/strided_slice/stack_2", "op": "Const", "attr": {"value": {"tensor": {"dtype": "DT_INT32", "tensorShape": {"dim": [{"size": "1"}]}}}, "dtype": {"type": "DT_INT32"}}}, {"name": "res_text/EncodeFeature/Transformer/TransformerStack/Layer_1/TransformerLayer/MultiheadAttention/to_3d_1/Reshape/shape/1", "op": "Const", "attr": {"value": {"tensor": {"dtype": "DT_INT32", "tensorShape": {}}}, "dtype": {"type": "DT_INT32"}}}, {"name": "res_text/EncodeFeature/Transformer/TransformerStack/Layer_1/TransformerLayer/MultiheadAttention/to_3d_1/Reshape/shape/2", "op": "Const", "attr": {"dtype": {"type": "DT_INT32"}, "value": {"tensor": {"dtype": "DT_INT32", "tensorShape": {}}}}}, {"name": "res_text/EncodeFeature/Transformer/TransformerStack/Layer_1/TransformerLayer/MultiheadAttention/split_heads_1/split_last_dimension/strided_slice/stack", "op": "Const", "attr": {"dtype": {"type": "DT_INT32"}, "value": {"tensor": {"dtype": "DT_INT32", "tensorShape": {"dim": [{"size": "1"}]}}}}}, {"name": "res_text/EncodeFeature/Transformer/TransformerStack/Layer_1/TransformerLayer/MultiheadAttention/split_heads_1/split_last_dimension/strided_slice/stack_1", "op": "Const", "attr": {"value": {"tensor": {"dtype": "DT_INT32", "tensorShape": {"dim": [{"size": "1"}]}}}, "dtype": {"type": "DT_INT32"}}}, {"name": "res_text/EncodeFeature/Transformer/TransformerStack/Layer_1/TransformerLayer/MultiheadAttention/split_heads_1/split_last_dimension/strided_slice/stack_2", "op": "Const", "attr": {"value": {"tensor": {"dtype": "DT_INT32", "tensorShape": {"dim": [{"size": "1"}]}}}, "dtype": {"type": "DT_INT32"}}}, {"name": "res_text/EncodeFeature/Transformer/TransformerStack/Layer_1/TransformerLayer/MultiheadAttention/split_heads_1/split_last_dimension/Reshape/shape/1", "op": "Const", "attr": {"value": {"tensor": {"dtype": "DT_INT32", "tensorShape": {}}}, "dtype": {"type": "DT_INT32"}}}, {"name": "res_text/EncodeFeature/Transformer/TransformerStack/Layer_1/TransformerLayer/MultiheadAttention/split_heads_1/split_last_dimension/Reshape/shape/2", "op": "Const", "attr": {"dtype": {"type": "DT_INT32"}, "value": {"tensor": {"dtype": "DT_INT32", "tensorShape": {}}}}}, {"name": "res_text/EncodeFeature/Transformer/TransformerStack/Layer_1/TransformerLayer/MultiheadAttention/split_heads_1/split_last_dimension/Reshape/shape/3", "op": "Const", "attr": {"dtype": {"type": "DT_INT32"}, "value": {"tensor": {"dtype": "DT_INT32", "tensorShape": {}}}}}, {"name": "res_text/EncodeFeature/Transformer/TransformerStack/Layer_1/TransformerLayer/MultiheadAttention/split_heads_1/transpose/perm", "op": "Const", "attr": {"dtype": {"type": "DT_INT32"}, "value": {"tensor": {"dtype": "DT_INT32", "tensorShape": {"dim": [{"size": "4"}]}}}}}, {"name": "res_text/EncodeFeature/Transformer/TransformerStack/Layer_1/TransformerLayer/attention_bias_ignore_padding/mul/y", "op": "Const", "attr": {"value": {"tensor": {"dtype": "DT_FLOAT", "tensorShape": {}}}, "dtype": {"type": "DT_FLOAT"}}}, {"name": "res_text/EncodeFeature/Transformer/TransformerStack/Layer_1/TransformerLayer/attention_bias_ignore_padding/ExpandDims/dim", "op": "Const", "attr": {"dtype": {"type": "DT_INT32"}, "value": {"tensor": {"dtype": "DT_INT32", "tensorShape": {}}}}}, {"name": "res_text/EncodeFeature/Transformer/TransformerStack/Layer_1/TransformerLayer/attention_bias_ignore_padding/ExpandDims_1/dim", "op": "Const", "attr": {"dtype": {"type": "DT_INT32"}, "value": {"tensor": {"dtype": "DT_INT32", "tensorShape": {}}}}}, {"name": "Transformer/Layer_1/TransformerLayer/layer_prepostprocess/layer_norm/layer_norm_scale", "op": "Const", "attr": {"value": {"tensor": {"dtype": "DT_FLOAT", "tensorShape": {"dim": [{"size": "120"}]}}}, "dtype": {"type": "DT_FLOAT"}}}, {"name": "res_text/EncodeFeature/Transformer/TransformerStack/Layer_1/TransformerLayer/layer_prepostprocess/layer_norm/Mean_1/reduction_indices", "op": "Const", "attr": {"dtype": {"type": "DT_INT32"}, "value": {"tensor": {"dtype": "DT_INT32", "tensorShape": {"dim": [{"size": "1"}]}}}}}, {"name": "res_text/EncodeFeature/Transformer/TransformerStack/Layer_1/TransformerLayer/layer_prepostprocess/layer_norm/Const", "op": "Const", "attr": {"dtype": {"type": "DT_FLOAT"}, "value": {"tensor": {"dtype": "DT_FLOAT", "tensorShape": {}}}}}, {"name": "res_text/EncodeFeature/Transformer/TransformerStack/Layer_1/TransformerLayer/layer_prepostprocess/layer_norm/Mean/reduction_indices", "op": "Const", "attr": {"value": {"tensor": {"dtype": "DT_INT32", "tensorShape": {"dim": [{"size": "1"}]}}}, "dtype": {"type": "DT_INT32"}}}, {"name": "Transformer/Layer_1/TransformerLayer/layer_prepostprocess/layer_norm/layer_norm_bias", "op": "Const", "attr": {"dtype": {"type": "DT_FLOAT"}, "value": {"tensor": {"dtype": "DT_FLOAT", "tensorShape": {"dim": [{"size": "120"}]}}}}}, {"name": "Transformer/Layer_1/TransformerLayer/MultiheadAttention/dense_2/kernel", "op": "Const", "attr": {"dtype": {"type": "DT_FLOAT"}, "value": {"tensor": {"dtype": "DT_FLOAT", "tensorShape": {"dim": [{"size": "120"}, {"size": "120"}]}}}}}, {"name": "Transformer/Layer_1/TransformerLayer/MultiheadAttention/dense_2/bias", "op": "Const", "attr": {"dtype": {"type": "DT_FLOAT"}, "value": {"tensor": {"dtype": "DT_FLOAT", "tensorShape": {"dim": [{"size": "120"}]}}}}}, {"name": "res_text/EncodeFeature/Transformer/TransformerStack/Layer_1/TransformerLayer/MultiheadAttention/to_3d_2/strided_slice/stack", "op": "Const", "attr": {"value": {"tensor": {"dtype": "DT_INT32", "tensorShape": {"dim": [{"size": "1"}]}}}, "dtype": {"type": "DT_INT32"}}}, {"name": "res_text/EncodeFeature/Transformer/TransformerStack/Layer_1/TransformerLayer/MultiheadAttention/to_3d_2/strided_slice/stack_1", "op": "Const", "attr": {"dtype": {"type": "DT_INT32"}, "value": {"tensor": {"dtype": "DT_INT32", "tensorShape": {"dim": [{"size": "1"}]}}}}}, {"name": "res_text/EncodeFeature/Transformer/TransformerStack/Layer_1/TransformerLayer/MultiheadAttention/to_3d_2/strided_slice/stack_2", "op": "Const", "attr": {"value": {"tensor": {"dtype": "DT_INT32", "tensorShape": {"dim": [{"size": "1"}]}}}, "dtype": {"type": "DT_INT32"}}}, {"name": "res_text/EncodeFeature/Transformer/TransformerStack/Layer_1/TransformerLayer/MultiheadAttention/to_3d_2/Reshape/shape/1", "op": "Const", "attr": {"dtype": {"type": "DT_INT32"}, "value": {"tensor": {"dtype": "DT_INT32", "tensorShape": {}}}}}, {"name": "res_text/EncodeFeature/Transformer/TransformerStack/Layer_1/TransformerLayer/MultiheadAttention/to_3d_2/Reshape/shape/2", "op": "Const", "attr": {"value": {"tensor": {"dtype": "DT_INT32", "tensorShape": {}}}, "dtype": {"type": "DT_INT32"}}}, {"name": "res_text/EncodeFeature/Transformer/TransformerStack/Layer_1/TransformerLayer/MultiheadAttention/split_heads_2/split_last_dimension/strided_slice/stack", "op": "Const", "attr": {"dtype": {"type": "DT_INT32"}, "value": {"tensor": {"dtype": "DT_INT32", "tensorShape": {"dim": [{"size": "1"}]}}}}}, {"name": "res_text/EncodeFeature/Transformer/TransformerStack/Layer_1/TransformerLayer/MultiheadAttention/split_heads_2/split_last_dimension/strided_slice/stack_1", "op": "Const", "attr": {"value": {"tensor": {"dtype": "DT_INT32", "tensorShape": {"dim": [{"size": "1"}]}}}, "dtype": {"type": "DT_INT32"}}}, {"name": "res_text/EncodeFeature/Transformer/TransformerStack/Layer_1/TransformerLayer/MultiheadAttention/split_heads_2/split_last_dimension/strided_slice/stack_2", "op": "Const", "attr": {"value": {"tensor": {"dtype": "DT_INT32", "tensorShape": {"dim": [{"size": "1"}]}}}, "dtype": {"type": "DT_INT32"}}}, {"name": "res_text/EncodeFeature/Transformer/TransformerStack/Layer_1/TransformerLayer/MultiheadAttention/split_heads_2/split_last_dimension/Reshape/shape/1", "op": "Const", "attr": {"value": {"tensor": {"dtype": "DT_INT32", "tensorShape": {}}}, "dtype": {"type": "DT_INT32"}}}, {"name": "res_text/EncodeFeature/Transformer/TransformerStack/Layer_1/TransformerLayer/MultiheadAttention/split_heads_2/split_last_dimension/Reshape/shape/2", "op": "Const", "attr": {"dtype": {"type": "DT_INT32"}, "value": {"tensor": {"dtype": "DT_INT32", "tensorShape": {}}}}}, {"name": "res_text/EncodeFeature/Transformer/TransformerStack/Layer_1/TransformerLayer/MultiheadAttention/split_heads_2/split_last_dimension/Reshape/shape/3", "op": "Const", "attr": {"dtype": {"type": "DT_INT32"}, "value": {"tensor": {"dtype": "DT_INT32", "tensorShape": {}}}}}, {"name": "res_text/EncodeFeature/Transformer/TransformerStack/Layer_1/TransformerLayer/MultiheadAttention/split_heads_2/transpose/perm", "op": "Const", "attr": {"value": {"tensor": {"dtype": "DT_INT32", "tensorShape": {"dim": [{"size": "4"}]}}}, "dtype": {"type": "DT_INT32"}}}, {"name": "res_text/EncodeFeature/Transformer/TransformerStack/Layer_1/TransformerLayer/MultiheadAttention/combine_heads/transpose/perm", "op": "Const", "attr": {"value": {"tensor": {"dtype": "DT_INT32", "tensorShape": {"dim": [{"size": "4"}]}}}, "dtype": {"type": "DT_INT32"}}}, {"name": "res_text/EncodeFeature/Transformer/TransformerStack/Layer_1/TransformerLayer/MultiheadAttention/to_2d/strided_slice/stack", "op": "Const", "attr": {"value": {"tensor": {"dtype": "DT_INT32", "tensorShape": {"dim": [{"size": "1"}]}}}, "dtype": {"type": "DT_INT32"}}}, {"name": "res_text/EncodeFeature/Transformer/TransformerStack/Layer_1/TransformerLayer/MultiheadAttention/to_2d/strided_slice/stack_1", "op": "Const", "attr": {"dtype": {"type": "DT_INT32"}, "value": {"tensor": {"dtype": "DT_INT32", "tensorShape": {"dim": [{"size": "1"}]}}}}}, {"name": "res_text/EncodeFeature/Transformer/TransformerStack/Layer_1/TransformerLayer/MultiheadAttention/to_2d/strided_slice/stack_2", "op": "Const", "attr": {"value": {"tensor": {"dtype": "DT_INT32", "tensorShape": {"dim": [{"size": "1"}]}}}, "dtype": {"type": "DT_INT32"}}}, {"name": "res_text/EncodeFeature/Transformer/TransformerStack/Layer_1/TransformerLayer/MultiheadAttention/to_2d/mul/y", "op": "Const", "attr": {"value": {"tensor": {"dtype": "DT_INT32", "tensorShape": {}}}, "dtype": {"type": "DT_INT32"}}}, {"name": "res_text/EncodeFeature/Transformer/TransformerStack/Layer_1/TransformerLayer/MultiheadAttention/to_2d/Reshape/shape/1", "op": "Const", "attr": {"value": {"tensor": {"dtype": "DT_INT32", "tensorShape": {}}}, "dtype": {"type": "DT_INT32"}}}, {"name": "Transformer/Layer_1/TransformerLayer/MultiheadAttention/output_transform/kernel", "op": "Const", "attr": {"dtype": {"type": "DT_FLOAT"}, "value": {"tensor": {"dtype": "DT_FLOAT", "tensorShape": {"dim": [{"size": "120"}, {"size": "120"}]}}}}}, {"name": "Transformer/Layer_1/TransformerLayer/MultiheadAttention/output_transform/bias", "op": "Const", "attr": {"value": {"tensor": {"dtype": "DT_FLOAT", "tensorShape": {"dim": [{"size": "120"}]}}}, "dtype": {"type": "DT_FLOAT"}}}, {"name": "res_text/EncodeFeature/Transformer/TransformerStack/Layer_0/TransformerLayer/FFN/conv2/Tensordot/Const", "op": "Const", "attr": {"value": {"tensor": {"dtype": "DT_INT32", "tensorShape": {"dim": [{"size": "1"}]}}}, "dtype": {"type": "DT_INT32"}}}, {"name": "res_text/EncodeFeature/Transformer/TransformerStack/Layer_0/TransformerLayer/FFN/conv2/Tensordot/axes", "op": "Const", "attr": {"dtype": {"type": "DT_INT32"}, "value": {"tensor": {"dtype": "DT_INT32", "tensorShape": {"dim": [{"size": "1"}]}}}}}, {"name": "res_text/EncodeFeature/Transformer/TransformerStack/Layer_0/TransformerLayer/FFN/conv2/Tensordot/GatherV2_1/axis", "op": "Const", "attr": {"value": {"tensor": {"dtype": "DT_INT32", "tensorShape": {}}}, "dtype": {"type": "DT_INT32"}}}, {"name": "res_text/EncodeFeature/Transformer/TransformerStack/Layer_0/TransformerLayer/FFN/conv2/Tensordot/Const_1", "op": "Const", "attr": {"value": {"tensor": {"dtype": "DT_INT32", "tensorShape": {"dim": [{"size": "1"}]}}}, "dtype": {"type": "DT_INT32"}}}, {"name": "Transformer/Layer_0/TransformerLayer/FFN/conv2/kernel", "op": "Const", "attr": {"value": {"tensor": {"dtype": "DT_FLOAT", "tensorShape": {"dim": [{"size": "256"}, {"size": "120"}]}}}, "dtype": {"type": "DT_FLOAT"}}}, {"name": "res_text/EncodeFeature/Transformer/TransformerStack/Layer_0/TransformerLayer/FFN/conv1/Tensordot/Const", "op": "Const", "attr": {"value": {"tensor": {"dtype": "DT_INT32", "tensorShape": {"dim": [{"size": "1"}]}}}, "dtype": {"type": "DT_INT32"}}}, {"name": "res_text/EncodeFeature/Transformer/TransformerStack/Layer_0/TransformerLayer/FFN/conv1/Tensordot/axes", "op": "Const", "attr": {"value": {"tensor": {"dtype": "DT_INT32", "tensorShape": {"dim": [{"size": "1"}]}}}, "dtype": {"type": "DT_INT32"}}}, {"name": "res_text/EncodeFeature/Transformer/TransformerStack/Layer_0/TransformerLayer/FFN/conv1/Tensordot/GatherV2_1/axis", "op": "Const", "attr": {"value": {"tensor": {"dtype": "DT_INT32", "tensorShape": {}}}, "dtype": {"type": "DT_INT32"}}}, {"name": "res_text/EncodeFeature/Transformer/TransformerStack/Layer_0/TransformerLayer/FFN/conv1/Tensordot/Const_1", "op": "Const", "attr": {"dtype": {"type": "DT_INT32"}, "value": {"tensor": {"dtype": "DT_INT32", "tensorShape": {"dim": [{"size": "1"}]}}}}}, {"name": "Transformer/Layer_0/TransformerLayer/FFN/conv1/kernel", "op": "Const", "attr": {"value": {"tensor": {"dtype": "DT_FLOAT", "tensorShape": {"dim": [{"size": "120"}, {"size": "256"}]}}}, "dtype": {"type": "DT_FLOAT"}}}, {"name": "Transformer/Layer_0/TransformerLayer/FFN/layer_prepostprocess/layer_norm/layer_norm_scale", "op": "Const", "attr": {"dtype": {"type": "DT_FLOAT"}, "value": {"tensor": {"dtype": "DT_FLOAT", "tensorShape": {"dim": [{"size": "120"}]}}}}}, {"name": "res_text/EncodeFeature/Transformer/TransformerStack/Layer_0/TransformerLayer/FFN/layer_prepostprocess/layer_norm/Mean_1/reduction_indices", "op": "Const", "attr": {"value": {"tensor": {"dtype": "DT_INT32", "tensorShape": {"dim": [{"size": "1"}]}}}, "dtype": {"type": "DT_INT32"}}}, {"name": "res_text/EncodeFeature/Transformer/TransformerStack/Layer_0/TransformerLayer/FFN/layer_prepostprocess/layer_norm/Const", "op": "Const", "attr": {"dtype": {"type": "DT_FLOAT"}, "value": {"tensor": {"dtype": "DT_FLOAT", "tensorShape": {}}}}}, {"name": "res_text/EncodeFeature/Transformer/TransformerStack/Layer_0/TransformerLayer/FFN/layer_prepostprocess/layer_norm/Mean/reduction_indices", "op": "Const", "attr": {"dtype": {"type": "DT_INT32"}, "value": {"tensor": {"dtype": "DT_INT32", "tensorShape": {"dim": [{"size": "1"}]}}}}}, {"name": "Transformer/Layer_0/TransformerLayer/FFN/layer_prepostprocess/layer_norm/layer_norm_bias", "op": "Const", "attr": {"dtype": {"type": "DT_FLOAT"}, "value": {"tensor": {"dtype": "DT_FLOAT", "tensorShape": {"dim": [{"size": "120"}]}}}}}, {"name": "res_text/EncodeFeature/Transformer/TransformerStack/Layer_0/TransformerLayer/FFN/ExpandDims/dim", "op": "Const", "attr": {"value": {"tensor": {"dtype": "DT_INT32", "tensorShape": {}}}, "dtype": {"type": "DT_INT32"}}}, {"name": "res_text/EncodeFeature/Transformer/TransformerStack/Layer_0/TransformerLayer/FFN/conv1/Tensordot/free", "op": "Const", "attr": {"value": {"tensor": {"dtype": "DT_INT32", "tensorShape": {"dim": [{"size": "2"}]}}}, "dtype": {"type": "DT_INT32"}}}, {"name": "res_text/EncodeFeature/Transformer/TransformerStack/Layer_0/TransformerLayer/FFN/conv1/Tensordot/GatherV2/axis", "op": "Const", "attr": {"value": {"tensor": {"dtype": "DT_INT32", "tensorShape": {}}}, "dtype": {"type": "DT_INT32"}}}, {"name": "res_text/EncodeFeature/Transformer/TransformerStack/Layer_0/TransformerLayer/FFN/conv1/Tensordot/Const_2", "op": "Const", "attr": {"value": {"tensor": {"dtype": "DT_INT32", "tensorShape": {"dim": [{"size": "1"}]}}}, "dtype": {"type": "DT_INT32"}}}, {"name": "res_text/EncodeFeature/Transformer/TransformerStack/Layer_0/TransformerLayer/FFN/conv1/Tensordot/concat_1/axis", "op": "Const", "attr": {"value": {"tensor": {"dtype": "DT_INT32", "tensorShape": {}}}, "dtype": {"type": "DT_INT32"}}}, {"name": "Transformer/Layer_0/TransformerLayer/FFN/conv1/bias", "op": "Const", "attr": {"value": {"tensor": {"dtype": "DT_FLOAT", "tensorShape": {"dim": [{"size": "256"}]}}}, "dtype": {"type": "DT_FLOAT"}}}, {"name": "res_text/EncodeFeature/Transformer/TransformerStack/Layer_0/TransformerLayer/FFN/conv2/Tensordot/free", "op": "Const", "attr": {"value": {"tensor": {"dtype": "DT_INT32", "tensorShape": {"dim": [{"size": "2"}]}}}, "dtype": {"type": "DT_INT32"}}}, {"name": "res_text/EncodeFeature/Transformer/TransformerStack/Layer_0/TransformerLayer/FFN/conv2/Tensordot/GatherV2/axis", "op": "Const", "attr": {"value": {"tensor": {"dtype": "DT_INT32", "tensorShape": {}}}, "dtype": {"type": "DT_INT32"}}}, {"name": "res_text/EncodeFeature/Transformer/TransformerStack/Layer_0/TransformerLayer/FFN/conv2/Tensordot/Const_2", "op": "Const", "attr": {"value": {"tensor": {"dtype": "DT_INT32", "tensorShape": {"dim": [{"size": "1"}]}}}, "dtype": {"type": "DT_INT32"}}}, {"name": "res_text/EncodeFeature/Transformer/TransformerStack/Layer_0/TransformerLayer/FFN/conv2/Tensordot/concat_1/axis", "op": "Const", "attr": {"dtype": {"type": "DT_INT32"}, "value": {"tensor": {"dtype": "DT_INT32", "tensorShape": {}}}}}, {"name": "Transformer/Layer_0/TransformerLayer/FFN/conv2/bias", "op": "Const", "attr": {"value": {"tensor": {"dtype": "DT_FLOAT", "tensorShape": {"dim": [{"size": "120"}]}}}, "dtype": {"type": "DT_FLOAT"}}}, {"name": "Transformer/Layer_0/TransformerLayer/MultiheadAttention/dense/kernel", "op": "Const", "attr": {"dtype": {"type": "DT_FLOAT"}, "value": {"tensor": {"dtype": "DT_FLOAT", "tensorShape": {"dim": [{"size": "100"}, {"size": "100"}]}}}}}, {"name": "Transformer/Layer_0/TransformerLayer/MultiheadAttention/dense/bias", "op": "Const", "attr": {"value": {"tensor": {"dtype": "DT_FLOAT", "tensorShape": {"dim": [{"size": "100"}]}}}, "dtype": {"type": "DT_FLOAT"}}}, {"name": "res_text/EncodeFeature/Transformer/TransformerStack/Layer_0/TransformerLayer/MultiheadAttention/to_3d/strided_slice/stack", "op": "Const", "attr": {"value": {"tensor": {"dtype": "DT_INT32", "tensorShape": {"dim": [{"size": "1"}]}}}, "dtype": {"type": "DT_INT32"}}}, {"name": "res_text/EncodeFeature/Transformer/TransformerStack/Layer_0/TransformerLayer/MultiheadAttention/to_3d/strided_slice/stack_1", "op": "Const", "attr": {"dtype": {"type": "DT_INT32"}, "value": {"tensor": {"dtype": "DT_INT32", "tensorShape": {"dim": [{"size": "1"}]}}}}}, {"name": "res_text/EncodeFeature/Transformer/TransformerStack/Layer_0/TransformerLayer/MultiheadAttention/to_3d/strided_slice/stack_2", "op": "Const", "attr": {"value": {"tensor": {"dtype": "DT_INT32", "tensorShape": {"dim": [{"size": "1"}]}}}, "dtype": {"type": "DT_INT32"}}}, {"name": "res_text/EncodeFeature/Transformer/TransformerStack/Layer_0/TransformerLayer/MultiheadAttention/to_3d/Reshape/shape/1", "op": "Const", "attr": {"value": {"tensor": {"dtype": "DT_INT32", "tensorShape": {}}}, "dtype": {"type": "DT_INT32"}}}, {"name": "res_text/EncodeFeature/Transformer/TransformerStack/Layer_0/TransformerLayer/MultiheadAttention/to_3d/Reshape/shape/2", "op": "Const", "attr": {"value": {"tensor": {"dtype": "DT_INT32", "tensorShape": {}}}, "dtype": {"type": "DT_INT32"}}}, {"name": "res_text/EncodeFeature/Transformer/TransformerStack/Layer_0/TransformerLayer/MultiheadAttention/split_heads/split_last_dimension/strided_slice/stack", "op": "Const", "attr": {"value": {"tensor": {"dtype": "DT_INT32", "tensorShape": {"dim": [{"size": "1"}]}}}, "dtype": {"type": "DT_INT32"}}}, {"name": "res_text/EncodeFeature/Transformer/TransformerStack/Layer_0/TransformerLayer/MultiheadAttention/split_heads/split_last_dimension/strided_slice/stack_1", "op": "Const", "attr": {"value": {"tensor": {"dtype": "DT_INT32", "tensorShape": {"dim": [{"size": "1"}]}}}, "dtype": {"type": "DT_INT32"}}}, {"name": "res_text/EncodeFeature/Transformer/TransformerStack/Layer_0/TransformerLayer/MultiheadAttention/split_heads/split_last_dimension/strided_slice/stack_2", "op": "Const", "attr": {"value": {"tensor": {"dtype": "DT_INT32", "tensorShape": {"dim": [{"size": "1"}]}}}, "dtype": {"type": "DT_INT32"}}}, {"name": "res_text/EncodeFeature/Transformer/TransformerStack/Layer_0/TransformerLayer/MultiheadAttention/split_heads/split_last_dimension/Reshape/shape/1", "op": "Const", "attr": {"value": {"tensor": {"dtype": "DT_INT32", "tensorShape": {}}}, "dtype": {"type": "DT_INT32"}}}, {"name": "res_text/EncodeFeature/Transformer/TransformerStack/Layer_0/TransformerLayer/MultiheadAttention/split_heads/split_last_dimension/Reshape/shape/2", "op": "Const", "attr": {"dtype": {"type": "DT_INT32"}, "value": {"tensor": {"dtype": "DT_INT32", "tensorShape": {}}}}}, {"name": "res_text/EncodeFeature/Transformer/TransformerStack/Layer_0/TransformerLayer/MultiheadAttention/split_heads/split_last_dimension/Reshape/shape/3", "op": "Const", "attr": {"dtype": {"type": "DT_INT32"}, "value": {"tensor": {"dtype": "DT_INT32", "tensorShape": {}}}}}, {"name": "res_text/EncodeFeature/Transformer/TransformerStack/Layer_0/TransformerLayer/MultiheadAttention/split_heads/transpose/perm", "op": "Const", "attr": {"value": {"tensor": {"dtype": "DT_INT32", "tensorShape": {"dim": [{"size": "4"}]}}}, "dtype": {"type": "DT_INT32"}}}, {"name": "res_text/EncodeFeature/Transformer/TransformerStack/Layer_0/TransformerLayer/MultiheadAttention/mul/y", "op": "Const", "attr": {"value": {"tensor": {"dtype": "DT_FLOAT", "tensorShape": {}}}, "dtype": {"type": "DT_FLOAT"}}}, {"name": "Transformer/Layer_0/TransformerLayer/MultiheadAttention/dense_1/kernel", "op": "Const", "attr": {"value": {"tensor": {"dtype": "DT_FLOAT", "tensorShape": {"dim": [{"size": "100"}, {"size": "100"}]}}}, "dtype": {"type": "DT_FLOAT"}}}, {"name": "Transformer/Layer_0/TransformerLayer/MultiheadAttention/dense_1/bias", "op": "Const", "attr": {"value": {"tensor": {"dtype": "DT_FLOAT", "tensorShape": {"dim": [{"size": "100"}]}}}, "dtype": {"type": "DT_FLOAT"}}}, {"name": "res_text/EncodeFeature/Transformer/TransformerStack/Layer_0/TransformerLayer/MultiheadAttention/to_3d_1/strided_slice/stack", "op": "Const", "attr": {"value": {"tensor": {"dtype": "DT_INT32", "tensorShape": {"dim": [{"size": "1"}]}}}, "dtype": {"type": "DT_INT32"}}}, {"name": "res_text/EncodeFeature/Transformer/TransformerStack/Layer_0/TransformerLayer/MultiheadAttention/to_3d_1/strided_slice/stack_1", "op": "Const", "attr": {"dtype": {"type": "DT_INT32"}, "value": {"tensor": {"dtype": "DT_INT32", "tensorShape": {"dim": [{"size": "1"}]}}}}}, {"name": "res_text/EncodeFeature/Transformer/TransformerStack/Layer_0/TransformerLayer/MultiheadAttention/to_3d_1/strided_slice/stack_2", "op": "Const", "attr": {"value": {"tensor": {"dtype": "DT_INT32", "tensorShape": {"dim": [{"size": "1"}]}}}, "dtype": {"type": "DT_INT32"}}}, {"name": "res_text/EncodeFeature/Transformer/TransformerStack/Layer_0/TransformerLayer/MultiheadAttention/to_3d_1/Reshape/shape/1", "op": "Const", "attr": {"value": {"tensor": {"dtype": "DT_INT32", "tensorShape": {}}}, "dtype": {"type": "DT_INT32"}}}, {"name": "res_text/EncodeFeature/Transformer/TransformerStack/Layer_0/TransformerLayer/MultiheadAttention/to_3d_1/Reshape/shape/2", "op": "Const", "attr": {"dtype": {"type": "DT_INT32"}, "value": {"tensor": {"dtype": "DT_INT32", "tensorShape": {}}}}}, {"name": "res_text/EncodeFeature/Transformer/TransformerStack/Layer_0/TransformerLayer/MultiheadAttention/split_heads_1/split_last_dimension/strided_slice/stack", "op": "Const", "attr": {"value": {"tensor": {"dtype": "DT_INT32", "tensorShape": {"dim": [{"size": "1"}]}}}, "dtype": {"type": "DT_INT32"}}}, {"name": "res_text/EncodeFeature/Transformer/TransformerStack/Layer_0/TransformerLayer/MultiheadAttention/split_heads_1/split_last_dimension/strided_slice/stack_1", "op": "Const", "attr": {"value": {"tensor": {"dtype": "DT_INT32", "tensorShape": {"dim": [{"size": "1"}]}}}, "dtype": {"type": "DT_INT32"}}}, {"name": "res_text/EncodeFeature/Transformer/TransformerStack/Layer_0/TransformerLayer/MultiheadAttention/split_heads_1/split_last_dimension/strided_slice/stack_2", "op": "Const", "attr": {"dtype": {"type": "DT_INT32"}, "value": {"tensor": {"dtype": "DT_INT32", "tensorShape": {"dim": [{"size": "1"}]}}}}}, {"name": "res_text/EncodeFeature/Transformer/TransformerStack/Layer_0/TransformerLayer/MultiheadAttention/split_heads_1/split_last_dimension/Reshape/shape/1", "op": "Const", "attr": {"value": {"tensor": {"dtype": "DT_INT32", "tensorShape": {}}}, "dtype": {"type": "DT_INT32"}}}, {"name": "res_text/EncodeFeature/Transformer/TransformerStack/Layer_0/TransformerLayer/MultiheadAttention/split_heads_1/split_last_dimension/Reshape/shape/2", "op": "Const", "attr": {"value": {"tensor": {"dtype": "DT_INT32", "tensorShape": {}}}, "dtype": {"type": "DT_INT32"}}}, {"name": "res_text/EncodeFeature/Transformer/TransformerStack/Layer_0/TransformerLayer/MultiheadAttention/split_heads_1/split_last_dimension/Reshape/shape/3", "op": "Const", "attr": {"dtype": {"type": "DT_INT32"}, "value": {"tensor": {"dtype": "DT_INT32", "tensorShape": {}}}}}, {"name": "res_text/EncodeFeature/Transformer/TransformerStack/Layer_0/TransformerLayer/MultiheadAttention/split_heads_1/transpose/perm", "op": "Const", "attr": {"value": {"tensor": {"dtype": "DT_INT32", "tensorShape": {"dim": [{"size": "4"}]}}}, "dtype": {"type": "DT_INT32"}}}, {"name": "res_text/EncodeFeature/Transformer/TransformerStack/Layer_0/TransformerLayer/attention_bias_ignore_padding/mul/y", "op": "Const", "attr": {"dtype": {"type": "DT_FLOAT"}, "value": {"tensor": {"dtype": "DT_FLOAT", "tensorShape": {}}}}}, {"name": "res_text/EncodeFeature/Transformer/TransformerStack/Layer_0/TransformerLayer/attention_bias_ignore_padding/ExpandDims/dim", "op": "Const", "attr": {"dtype": {"type": "DT_INT32"}, "value": {"tensor": {"dtype": "DT_INT32", "tensorShape": {}}}}}, {"name": "res_text/EncodeFeature/Transformer/TransformerStack/Layer_0/TransformerLayer/attention_bias_ignore_padding/ExpandDims_1/dim", "op": "Const", "attr": {"value": {"tensor": {"dtype": "DT_INT32", "tensorShape": {}}}, "dtype": {"type": "DT_INT32"}}}, {"name": "Transformer/Layer_0/TransformerLayer/layer_prepostprocess/layer_norm/layer_norm_scale", "op": "Const", "attr": {"value": {"tensor": {"dtype": "DT_FLOAT", "tensorShape": {"dim": [{"size": "100"}]}}}, "dtype": {"type": "DT_FLOAT"}}}, {"name": "res_text/EncodeFeature/Transformer/TransformerStack/Layer_0/TransformerLayer/layer_prepostprocess/layer_norm/Mean_1/reduction_indices", "op": "Const", "attr": {"dtype": {"type": "DT_INT32"}, "value": {"tensor": {"dtype": "DT_INT32", "tensorShape": {"dim": [{"size": "1"}]}}}}}, {"name": "res_text/EncodeFeature/Transformer/TransformerStack/Layer_0/TransformerLayer/layer_prepostprocess/layer_norm/Const", "op": "Const", "attr": {"value": {"tensor": {"dtype": "DT_FLOAT", "tensorShape": {}}}, "dtype": {"type": "DT_FLOAT"}}}, {"name": "res_text/EncodeFeature/Transformer/TransformerStack/Layer_0/TransformerLayer/layer_prepostprocess/layer_norm/Mean/reduction_indices", "op": "Const", "attr": {"value": {"tensor": {"dtype": "DT_INT32", "tensorShape": {"dim": [{"size": "1"}]}}}, "dtype": {"type": "DT_INT32"}}}, {"name": "Transformer/Layer_0/TransformerLayer/layer_prepostprocess/layer_norm/layer_norm_bias", "op": "Const", "attr": {"value": {"tensor": {"dtype": "DT_FLOAT", "tensorShape": {"dim": [{"size": "100"}]}}}, "dtype": {"type": "DT_FLOAT"}}}, {"name": "Transformer/Layer_0/TransformerLayer/MultiheadAttention/dense_2/kernel", "op": "Const", "attr": {"value": {"tensor": {"dtype": "DT_FLOAT", "tensorShape": {"dim": [{"size": "100"}, {"size": "100"}]}}}, "dtype": {"type": "DT_FLOAT"}}}, {"name": "Transformer/Layer_0/TransformerLayer/MultiheadAttention/dense_2/bias", "op": "Const", "attr": {"value": {"tensor": {"dtype": "DT_FLOAT", "tensorShape": {"dim": [{"size": "100"}]}}}, "dtype": {"type": "DT_FLOAT"}}}, {"name": "res_text/EncodeFeature/Transformer/TransformerStack/Layer_0/TransformerLayer/MultiheadAttention/to_3d_2/strided_slice/stack", "op": "Const", "attr": {"value": {"tensor": {"dtype": "DT_INT32", "tensorShape": {"dim": [{"size": "1"}]}}}, "dtype": {"type": "DT_INT32"}}}, {"name": "res_text/EncodeFeature/Transformer/TransformerStack/Layer_0/TransformerLayer/MultiheadAttention/to_3d_2/strided_slice/stack_1", "op": "Const", "attr": {"value": {"tensor": {"dtype": "DT_INT32", "tensorShape": {"dim": [{"size": "1"}]}}}, "dtype": {"type": "DT_INT32"}}}, {"name": "res_text/EncodeFeature/Transformer/TransformerStack/Layer_0/TransformerLayer/MultiheadAttention/to_3d_2/strided_slice/stack_2", "op": "Const", "attr": {"dtype": {"type": "DT_INT32"}, "value": {"tensor": {"dtype": "DT_INT32", "tensorShape": {"dim": [{"size": "1"}]}}}}}, {"name": "res_text/EncodeFeature/Transformer/TransformerStack/Layer_0/TransformerLayer/MultiheadAttention/to_3d_2/Reshape/shape/1", "op": "Const", "attr": {"value": {"tensor": {"dtype": "DT_INT32", "tensorShape": {}}}, "dtype": {"type": "DT_INT32"}}}, {"name": "res_text/EncodeFeature/Transformer/TransformerStack/Layer_0/TransformerLayer/MultiheadAttention/to_3d_2/Reshape/shape/2", "op": "Const", "attr": {"value": {"tensor": {"dtype": "DT_INT32", "tensorShape": {}}}, "dtype": {"type": "DT_INT32"}}}, {"name": "res_text/EncodeFeature/Transformer/TransformerStack/Layer_0/TransformerLayer/MultiheadAttention/split_heads_2/split_last_dimension/strided_slice/stack", "op": "Const", "attr": {"value": {"tensor": {"dtype": "DT_INT32", "tensorShape": {"dim": [{"size": "1"}]}}}, "dtype": {"type": "DT_INT32"}}}, {"name": "res_text/EncodeFeature/Transformer/TransformerStack/Layer_0/TransformerLayer/MultiheadAttention/split_heads_2/split_last_dimension/strided_slice/stack_1", "op": "Const", "attr": {"value": {"tensor": {"dtype": "DT_INT32", "tensorShape": {"dim": [{"size": "1"}]}}}, "dtype": {"type": "DT_INT32"}}}, {"name": "res_text/EncodeFeature/Transformer/TransformerStack/Layer_0/TransformerLayer/MultiheadAttention/split_heads_2/split_last_dimension/strided_slice/stack_2", "op": "Const", "attr": {"dtype": {"type": "DT_INT32"}, "value": {"tensor": {"dtype": "DT_INT32", "tensorShape": {"dim": [{"size": "1"}]}}}}}, {"name": "res_text/EncodeFeature/Transformer/TransformerStack/Layer_0/TransformerLayer/MultiheadAttention/split_heads_2/split_last_dimension/Reshape/shape/1", "op": "Const", "attr": {"dtype": {"type": "DT_INT32"}, "value": {"tensor": {"dtype": "DT_INT32", "tensorShape": {}}}}}, {"name": "res_text/EncodeFeature/Transformer/TransformerStack/Layer_0/TransformerLayer/MultiheadAttention/split_heads_2/split_last_dimension/Reshape/shape/2", "op": "Const", "attr": {"dtype": {"type": "DT_INT32"}, "value": {"tensor": {"dtype": "DT_INT32", "tensorShape": {}}}}}, {"name": "res_text/EncodeFeature/Transformer/TransformerStack/Layer_0/TransformerLayer/MultiheadAttention/split_heads_2/split_last_dimension/Reshape/shape/3", "op": "Const", "attr": {"value": {"tensor": {"dtype": "DT_INT32", "tensorShape": {}}}, "dtype": {"type": "DT_INT32"}}}, {"name": "res_text/EncodeFeature/Transformer/TransformerStack/Layer_0/TransformerLayer/MultiheadAttention/split_heads_2/transpose/perm", "op": "Const", "attr": {"dtype": {"type": "DT_INT32"}, "value": {"tensor": {"dtype": "DT_INT32", "tensorShape": {"dim": [{"size": "4"}]}}}}}, {"name": "res_text/EncodeFeature/Transformer/TransformerStack/Layer_0/TransformerLayer/MultiheadAttention/combine_heads/transpose/perm", "op": "Const", "attr": {"value": {"tensor": {"dtype": "DT_INT32", "tensorShape": {"dim": [{"size": "4"}]}}}, "dtype": {"type": "DT_INT32"}}}, {"name": "res_text/EncodeFeature/Transformer/TransformerStack/Layer_0/TransformerLayer/MultiheadAttention/to_2d/strided_slice/stack", "op": "Const", "attr": {"value": {"tensor": {"dtype": "DT_INT32", "tensorShape": {"dim": [{"size": "1"}]}}}, "dtype": {"type": "DT_INT32"}}}, {"name": "res_text/EncodeFeature/Transformer/TransformerStack/Layer_0/TransformerLayer/MultiheadAttention/to_2d/strided_slice/stack_1", "op": "Const", "attr": {"value": {"tensor": {"dtype": "DT_INT32", "tensorShape": {"dim": [{"size": "1"}]}}}, "dtype": {"type": "DT_INT32"}}}, {"name": "res_text/EncodeFeature/Transformer/TransformerStack/Layer_0/TransformerLayer/MultiheadAttention/to_2d/strided_slice/stack_2", "op": "Const", "attr": {"value": {"tensor": {"dtype": "DT_INT32", "tensorShape": {"dim": [{"size": "1"}]}}}, "dtype": {"type": "DT_INT32"}}}, {"name": "res_text/EncodeFeature/Transformer/TransformerStack/Layer_0/TransformerLayer/MultiheadAttention/to_2d/mul/y", "op": "Const", "attr": {"dtype": {"type": "DT_INT32"}, "value": {"tensor": {"dtype": "DT_INT32", "tensorShape": {}}}}}, {"name": "res_text/EncodeFeature/Transformer/TransformerStack/Layer_0/TransformerLayer/MultiheadAttention/to_2d/Reshape/shape/1", "op": "Const", "attr": {"value": {"tensor": {"dtype": "DT_INT32", "tensorShape": {}}}, "dtype": {"type": "DT_INT32"}}}, {"name": "Transformer/Layer_0/TransformerLayer/MultiheadAttention/output_transform/kernel", "op": "Const", "attr": {"dtype": {"type": "DT_FLOAT"}, "value": {"tensor": {"dtype": "DT_FLOAT", "tensorShape": {"dim": [{"size": "100"}, {"size": "120"}]}}}}}, {"name": "Transformer/Layer_0/TransformerLayer/MultiheadAttention/output_transform/bias", "op": "Const", "attr": {"value": {"tensor": {"dtype": "DT_FLOAT", "tensorShape": {"dim": [{"size": "120"}]}}}, "dtype": {"type": "DT_FLOAT"}}}, {"name": "res_text/EncodeFeature/Transformer/TransformerStack/Layer_0/AddTimingSignal/to_2d/strided_slice/stack", "op": "Const", "attr": {"dtype": {"type": "DT_INT32"}, "value": {"tensor": {"dtype": "DT_INT32", "tensorShape": {"dim": [{"size": "1"}]}}}}}, {"name": "res_text/EncodeFeature/Transformer/TransformerStack/Layer_0/AddTimingSignal/to_2d/strided_slice/stack_1", "op": "Const", "attr": {"dtype": {"type": "DT_INT32"}, "value": {"tensor": {"dtype": "DT_INT32", "tensorShape": {"dim": [{"size": "1"}]}}}}}, {"name": "res_text/EncodeFeature/Transformer/TransformerStack/Layer_0/AddTimingSignal/to_2d/strided_slice/stack_2", "op": "Const", "attr": {"value": {"tensor": {"dtype": "DT_INT32", "tensorShape": {"dim": [{"size": "1"}]}}}, "dtype": {"type": "DT_INT32"}}}, {"name": "res_text/EncodeFeature/Transformer/TransformerStack/Layer_0/AddTimingSignal/to_2d/mul/y", "op": "Const", "attr": {"value": {"tensor": {"dtype": "DT_INT32", "tensorShape": {}}}, "dtype": {"type": "DT_INT32"}}}, {"name": "res_text/EncodeFeature/Transformer/TransformerStack/Layer_0/AddTimingSignal/to_2d/Reshape/shape/1", "op": "Const", "attr": {"value": {"tensor": {"dtype": "DT_INT32", "tensorShape": {}}}, "dtype": {"type": "DT_INT32"}}}, {"name": "res_text/EncodeFeature/Transformer/TransformerStack/Layer_0/AddTimingSignal/range", "op": "Const", "attr": {"dtype": {"type": "DT_INT32"}, "value": {"tensor": {"dtype": "DT_INT32", "tensorShape": {"dim": [{"size": "192"}]}}}}}, {"name": "res_text/EncodeFeature/Transformer/TransformerStack/Layer_0/AddTimingSignal/strided_slice/stack", "op": "Const", "attr": {"dtype": {"type": "DT_INT32"}, "value": {"tensor": {"dtype": "DT_INT32", "tensorShape": {"dim": [{"size": "1"}]}}}}}, {"name": "res_text/EncodeFeature/Transformer/TransformerStack/Layer_0/AddTimingSignal/strided_slice/stack_1", "op": "Const", "attr": {"dtype": {"type": "DT_INT32"}, "value": {"tensor": {"dtype": "DT_INT32", "tensorShape": {"dim": [{"size": "1"}]}}}}}, {"name": "res_text/EncodeFeature/Transformer/TransformerStack/Layer_0/AddTimingSignal/strided_slice/stack_2", "op": "Const", "attr": {"dtype": {"type": "DT_INT32"}, "value": {"tensor": {"dtype": "DT_INT32", "tensorShape": {"dim": [{"size": "1"}]}}}}}, {"name": "res_text/EncodeFeature/Transformer/TransformerStack/Layer_0/AddTimingSignal/TimingSignal/ExpandDims/dim", "op": "Const", "attr": {"dtype": {"type": "DT_INT32"}, "value": {"tensor": {"dtype": "DT_INT32", "tensorShape": {}}}}}, {"name": "res_text/EncodeFeature/Transformer/TransformerStack/Layer_0/AddTimingSignal/TimingSignal/ExpandDims_1", "op": "Const", "attr": {"value": {"tensor": {"dtype": "DT_FLOAT", "tensorShape": {"dim": [{"size": "1"}, {"size": "50"}]}}}, "dtype": {"type": "DT_FLOAT"}}}, {"name": "res_text/EncodeFeature/Transformer/TransformerStack/Layer_0/AddTimingSignal/TimingSignal/concat/axis", "op": "Const", "attr": {"dtype": {"type": "DT_INT32"}, "value": {"tensor": {"dtype": "DT_INT32", "tensorShape": {}}}}}, {"name": "Transformer/Layer_0/TransformerLayer/dense/kernel", "op": "Const", "attr": {"dtype": {"type": "DT_FLOAT"}, "value": {"tensor": {"dtype": "DT_FLOAT", "tensorShape": {"dim": [{"size": "100"}, {"size": "120"}]}}}}}, {"name": "Transformer/Layer_0/TransformerLayer/dense/bias", "op": "Const", "attr": {"dtype": {"type": "DT_FLOAT"}, "value": {"tensor": {"dtype": "DT_FLOAT", "tensorShape": {"dim": [{"size": "120"}]}}}}}, {"name": "res_text/EncodeFeature/Transformer/reduce_all_tokens/to_3d/strided_slice/stack", "op": "Const", "attr": {"dtype": {"type": "DT_INT32"}, "value": {"tensor": {"dtype": "DT_INT32", "tensorShape": {"dim": [{"size": "1"}]}}}}}, {"name": "res_text/EncodeFeature/Transformer/reduce_all_tokens/to_3d/strided_slice/stack_1", "op": "Const", "attr": {"value": {"tensor": {"dtype": "DT_INT32", "tensorShape": {"dim": [{"size": "1"}]}}}, "dtype": {"type": "DT_INT32"}}}, {"name": "res_text/EncodeFeature/Transformer/reduce_all_tokens/to_3d/strided_slice/stack_2", "op": "Const", "attr": {"value": {"tensor": {"dtype": "DT_INT32", "tensorShape": {"dim": [{"size": "1"}]}}}, "dtype": {"type": "DT_INT32"}}}, {"name": "res_text/EncodeFeature/Transformer/reduce_all_tokens/to_3d/Reshape/shape/1", "op": "Const", "attr": {"dtype": {"type": "DT_INT32"}, "value": {"tensor": {"dtype": "DT_INT32", "tensorShape": {}}}}}, {"name": "res_text/EncodeFeature/Transformer/reduce_all_tokens/to_3d/Reshape/shape/2", "op": "Const", "attr": {"dtype": {"type": "DT_INT32"}, "value": {"tensor": {"dtype": "DT_INT32", "tensorShape": {}}}}}, {"name": "res_text/EncodeFeature/Transformer/reduce_all_tokens/Sum/reduction_indices", "op": "Const", "attr": {"dtype": {"type": "DT_INT32"}, "value": {"tensor": {"dtype": "DT_INT32", "tensorShape": {}}}}}, {"name": "res_text/EncodeFeature/Transformer/reduce_all_tokens/lengths/Sum/reduction_indices", "op": "Const", "attr": {"dtype": {"type": "DT_INT32"}, "value": {"tensor": {"dtype": "DT_INT32", "tensorShape": {}}}}}, {"name": "res_text/EncodeFeature/Transformer/reduce_all_tokens/Maximum/y", "op": "Const", "attr": {"value": {"tensor": {"dtype": "DT_INT32", "tensorShape": {}}}, "dtype": {"type": "DT_INT32"}}}, {"name": "res_text/EncodeFeature/Transformer/reduce_all_tokens/ExpandDims_1/dim", "op": "Const", "attr": {"value": {"tensor": {"dtype": "DT_INT32", "tensorShape": {}}}, "dtype": {"type": "DT_INT32"}}}, {"name": "res_text/EncodeFeature/embedding_lookup/axis", "op": "Const", "attr": {"value": {"tensor": {"dtype": "DT_INT32", "tensorShape": {}}}, "dtype": {"type": "DT_INT32"}}}, {"name": "res_text/EncodeFeature/Sum/reduction_indices", "op": "Const", "attr": {"value": {"tensor": {"dtype": "DT_INT32", "tensorShape": {}}}, "dtype": {"type": "DT_INT32"}}}, {"name": "res_text/EncodeFeature/NotEqual/y", "op": "Const", "attr": {"value": {"tensor": {"dtype": "DT_INT32", "tensorShape": {}}}, "dtype": {"type": "DT_INT32"}}}, {"name": "res_text/EncodeFeature/ExpandDims/dim", "op": "Const", "attr": {"dtype": {"type": "DT_INT32"}, "value": {"tensor": {"dtype": "DT_INT32", "tensorShape": {}}}}}, {"name": "res_text/EncodeFeature/Sum_1/reduction_indices", "op": "Const", "attr": {"value": {"tensor": {"dtype": "DT_INT32", "tensorShape": {}}}, "dtype": {"type": "DT_INT32"}}}, {"name": "res_text/EncodeFeature/Transformer/concat/axis", "op": "Const", "attr": {"value": {"tensor": {"dtype": "DT_INT32", "tensorShape": {}}}, "dtype": {"type": "DT_INT32"}}}, {"name": "inp_text/res_text/EncodeResult/tanh_layer_0/dense/kernel", "op": "Const", "attr": {"value": {"tensor": {"dtype": "DT_FLOAT", "tensorShape": {"dim": [{"size": "220"}, {"size": "100"}]}}}, "dtype": {"type": "DT_FLOAT"}}}, {"name": "inp_text/res_text/EncodeResult/tanh_layer_0/dense/bias", "op": "Const", "attr": {"dtype": {"type": "DT_FLOAT"}, "value": {"tensor": {"dtype": "DT_FLOAT", "tensorShape": {"dim": [{"size": "100"}]}}}}}, {"name": "inp_text/res_text/EncodeResult/tanh_layer_1/dense/kernel", "op": "Const", "attr": {"dtype": {"type": "DT_FLOAT"}, "value": {"tensor": {"dtype": "DT_FLOAT", "tensorShape": {"dim": [{"size": "100"}, {"size": "100"}]}}}}}, {"name": "inp_text/res_text/EncodeResult/tanh_layer_1/dense/bias", "op": "Const", "attr": {"value": {"tensor": {"dtype": "DT_FLOAT", "tensorShape": {"dim": [{"size": "100"}]}}}, "dtype": {"type": "DT_FLOAT"}}}, {"name": "inp_text/res_text/EncodeResult/tanh_layer_2/dense/kernel", "op": "Const", "attr": {"value": {"tensor": {"dtype": "DT_FLOAT", "tensorShape": {"dim": [{"size": "100"}, {"size": "100"}]}}}, "dtype": {"type": "DT_FLOAT"}}}, {"name": "inp_text/res_text/EncodeResult/tanh_layer_2/dense/bias", "op": "Const", "attr": {"value": {"tensor": {"dtype": "DT_FLOAT", "tensorShape": {"dim": [{"size": "100"}]}}}, "dtype": {"type": "DT_FLOAT"}}}, {"name": "Embeddings", "op": "Const", "attr": {"value": {"tensor": {"dtype": "DT_FLOAT", "tensorShape": {"dim": [{"size": "8192"}, {"size": "100"}]}}}, "dtype": {"type": "DT_FLOAT"}}}, {"name": "res_context/EncodeFeature/embedding_lookup/axis", "op": "Const", "attr": {"value": {"tensor": {"dtype": "DT_INT32", "tensorShape": {}}}, "dtype": {"type": "DT_INT32"}}}, {"name": "res_context/EncodeFeature/Sum/reduction_indices", "op": "Const", "attr": {"value": {"tensor": {"dtype": "DT_INT32", "tensorShape": {}}}, "dtype": {"type": "DT_INT32"}}}, {"name": "res_context/EncodeFeature/NotEqual/y", "op": "Const", "attr": {"value": {"tensor": {"dtype": "DT_INT32", "tensorShape": {}}}, "dtype": {"type": "DT_INT32"}}}, {"name": "res_context/EncodeFeature/ExpandDims/dim", "op": "Const", "attr": {"dtype": {"type": "DT_INT32"}, "value": {"tensor": {"dtype": "DT_INT32", "tensorShape": {}}}}}, {"name": "res_context/EncodeFeature/Sum_1/reduction_indices", "op": "Const", "attr": {"value": {"tensor": {"dtype": "DT_INT32", "tensorShape": {}}}, "dtype": {"type": "DT_INT32"}}}, {"name": "inp_text/res_context/EncodeResult/tanh_layer_0/dense/kernel", "op": "Const", "attr": {"value": {"tensor": {"dtype": "DT_FLOAT", "tensorShape": {"dim": [{"size": "100"}, {"size": "100"}]}}}, "dtype": {"type": "DT_FLOAT"}}}, {"name": "inp_text/res_context/EncodeResult/tanh_layer_0/dense/bias", "op": "Const", "attr": {"value": {"tensor": {"dtype": "DT_FLOAT", "tensorShape": {"dim": [{"size": "100"}]}}}, "dtype": {"type": "DT_FLOAT"}}}, {"name": "inp_text/res_context/EncodeResult/tanh_layer_1/dense/kernel", "op": "Const", "attr": {"dtype": {"type": "DT_FLOAT"}, "value": {"tensor": {"dtype": "DT_FLOAT", "tensorShape": {"dim": [{"size": "100"}, {"size": "100"}]}}}}}, {"name": "inp_text/res_context/EncodeResult/tanh_layer_1/dense/bias", "op": "Const", "attr": {"dtype": {"type": "DT_FLOAT"}, "value": {"tensor": {"dtype": "DT_FLOAT", "tensorShape": {"dim": [{"size": "100"}]}}}}}, {"name": "inp_text/res_context/EncodeResult/tanh_layer_2/dense/kernel", "op": "Const", "attr": {"value": {"tensor": {"dtype": "DT_FLOAT", "tensorShape": {"dim": [{"size": "100"}, {"size": "100"}]}}}, "dtype": {"type": "DT_FLOAT"}}}, {"name": "inp_text/res_context/EncodeResult/tanh_layer_2/dense/bias", "op": "Const", "attr": {"value": {"tensor": {"dtype": "DT_FLOAT", "tensorShape": {"dim": [{"size": "100"}]}}}, "dtype": {"type": "DT_FLOAT"}}}, {"name": "Final/CombineFeatureEncodings/Mean/reduction_indices", "op": "Const", "attr": {"dtype": {"type": "DT_INT32"}, "value": {"tensor": {"dtype": "DT_INT32", "tensorShape": {"dim": [{"size": "1"}]}}}}}, {"name": "Final/EncodeResult/tanh_layer_0/dense/kernel", "op": "Const", "attr": {"value": {"tensor": {"dtype": "DT_FLOAT", "tensorShape": {"dim": [{"size": "100"}, {"size": "100"}]}}}, "dtype": {"type": "DT_FLOAT"}}}, {"name": "Final/EncodeResult/tanh_layer_0/dense/bias", "op": "Const", "attr": {"value": {"tensor": {"dtype": "DT_FLOAT", "tensorShape": {"dim": [{"size": "100"}]}}}, "dtype": {"type": "DT_FLOAT"}}}, {"name": "Final/EncodeResult/tanh_layer_1/dense/kernel", "op": "Const", "attr": {"dtype": {"type": "DT_FLOAT"}, "value": {"tensor": {"dtype": "DT_FLOAT", "tensorShape": {"dim": [{"size": "100"}, {"size": "100"}]}}}}}, {"name": "Final/EncodeResult/tanh_layer_1/dense/bias", "op": "Const", "attr": {"value": {"tensor": {"dtype": "DT_FLOAT", "tensorShape": {"dim": [{"size": "100"}]}}}, "dtype": {"type": "DT_FLOAT"}}}, {"name": "Final/EncodeResult/tanh_layer_2/dense/kernel", "op": "Const", "attr": {"value": {"tensor": {"dtype": "DT_FLOAT", "tensorShape": {"dim": [{"size": "100"}, {"size": "100"}]}}}, "dtype": {"type": "DT_FLOAT"}}}, {"name": "Final/EncodeResult/tanh_layer_2/dense/bias", "op": "Const", "attr": {"dtype": {"type": "DT_FLOAT"}, "value": {"tensor": {"dtype": "DT_FLOAT", "tensorShape": {"dim": [{"size": "100"}]}}}}}, {"name": "input_inp_text", "op": "Placeholder", "attr": {"shape": {"shape": {"dim": [{"size": "-1"}, {"size": "192"}]}}, "dtype": {"type": "DT_INT32"}}}, {"name": "input_res_context", "op": "Placeholder", "attr": {"shape": {"shape": {"dim": [{"size": "-1"}, {"size": "192"}]}}, "dtype": {"type": "DT_INT32"}}}, {"name": "input_res_text", "op": "Placeholder", "attr": {"dtype": {"type": "DT_INT32"}, "shape": {"shape": {"dim": [{"size": "-1"}, {"size": "192"}]}}}}, {"name": "inp_text/EncodeFeature/embedding_lookup", "op": "GatherV2", "input": ["Embeddings", "input_inp_text", "inp_text/EncodeFeature/embedding_lookup/axis"], "attr": {"Taxis": {"type": "DT_INT32"}, "Tparams": {"type": "DT_FLOAT"}, "Tindices": {"type": "DT_INT32"}, "batch_dims": {"i": "0"}}}, {"name": "inp_text/EncodeFeature/NotEqual", "op": "NotEqual", "input": ["input_inp_text", "inp_text/EncodeFeature/NotEqual/y"], "attr": {"incompatible_shape_error": {"b": true}, "T": {"type": "DT_INT32"}}}, {"name": "res_context/EncodeFeature/embedding_lookup", "op": "GatherV2", "input": ["Embeddings", "input_res_context", "res_context/EncodeFeature/embedding_lookup/axis"], "attr": {"batch_dims": {"i": "0"}, "Tparams": {"type": "DT_FLOAT"}, "Tindices": {"type": "DT_INT32"}, "Taxis": {"type": "DT_INT32"}}}, {"name": "res_context/EncodeFeature/NotEqual", "op": "NotEqual", "input": ["input_res_context", "res_context/EncodeFeature/NotEqual/y"], "attr": {"incompatible_shape_error": {"b": true}, "T": {"type": "DT_INT32"}}}, {"name": "res_text/EncodeFeature/embedding_lookup", "op": "GatherV2", "input": ["Embeddings", "input_res_text", "res_text/EncodeFeature/embedding_lookup/axis"], "attr": {"Taxis": {"type": "DT_INT32"}, "batch_dims": {"i": "0"}, "Tindices": {"type": "DT_INT32"}, "Tparams": {"type": "DT_FLOAT"}}}, {"name": "res_text/EncodeFeature/NotEqual", "op": "NotEqual", "input": ["input_res_text", "res_text/EncodeFeature/NotEqual/y"], "attr": {"incompatible_shape_error": {"b": true}, "T": {"type": "DT_INT32"}}}, {"name": "inp_text/EncodeFeature/Transformer/reduce_all_tokens/Cast", "op": "Cast", "input": ["inp_text/EncodeFeature/NotEqual"], "attr": {"SrcT": {"type": "DT_BOOL"}, "DstT": {"type": "DT_FLOAT"}, "Truncate": {"b": false}}}, {"name": "inp_text/EncodeFeature/Transformer/TransformerStack/Layer_2/TransformerLayer/MultiheadAttention/to_3d/Shape", "op": "Shape", "input": ["inp_text/EncodeFeature/NotEqual"], "attr": {"out_type": {"type": "DT_INT32"}, "T": {"type": "DT_BOOL"}}}, {"name": "inp_text/EncodeFeature/Transformer/TransformerStack/Layer_2/TransformerLayer/MultiheadAttention/to_3d_1/Shape", "op": "Shape", "input": ["inp_text/EncodeFeature/NotEqual"], "attr": {"out_type": {"type": "DT_INT32"}, "T": {"type": "DT_BOOL"}}}, {"name": "inp_text/EncodeFeature/Transformer/TransformerStack/Layer_2/TransformerLayer/LogicalNot", "op": "LogicalNot", "input": ["inp_text/EncodeFeature/NotEqual"]}, {"name": "inp_text/EncodeFeature/Transformer/TransformerStack/Layer_2/TransformerLayer/MultiheadAttention/to_3d_2/Shape", "op": "Shape", "input": ["inp_text/EncodeFeature/NotEqual"], "attr": {"T": {"type": "DT_BOOL"}, "out_type": {"type": "DT_INT32"}}}, {"name": "inp_text/EncodeFeature/Transformer/TransformerS…
ns/Sum/reduction_indices", "shape": [], "dtype": "int32"}, {"name": "inp_text/EncodeFeature/Transformer/reduce_all_tokens/lengths/Sum/reduction_indices", "shape": [], "dtype": "int32"}, {"name": "inp_text/EncodeFeature/Transformer/reduce_all_tokens/Maximum/y", "shape": [], "dtype": "int32"}, {"name": "inp_text/EncodeFeature/Transformer/reduce_all_tokens/ExpandDims_1/dim", "shape": [], "dtype": "int32"}, {"name": "inp_text/EncodeFeature/embedding_lookup/axis", "shape": [], "dtype": "int32"}, {"name": "inp_text/EncodeFeature/Sum/reduction_indices", "shape": [], "dtype": "int32"}, {"name": "inp_text/EncodeFeature/NotEqual/y", "shape": [], "dtype": "int32"}, {"name": "inp_text/EncodeFeature/ExpandDims/dim", "shape": [], "dtype": "int32"}, {"name": "inp_text/EncodeFeature/Sum_1/reduction_indices", "shape": [], "dtype": "int32"}, {"name": "inp_text/EncodeFeature/Transformer/concat/axis", "shape": [], "dtype": "int32"}, {"name": "inp_text/res_context/EncodeQuery/tanh_layer_0/dense/kernel", "shape": [220, 100], "dtype": "float32"}, {"name": "inp_text/res_context/EncodeQuery/tanh_layer_0/dense/bias", "shape": [100], "dtype": "float32"}, {"name": "inp_text/res_context/EncodeQuery/tanh_layer_1/dense/kernel", "shape": [100, 100], "dtype": "float32"}, {"name": "inp_text/res_context/EncodeQuery/tanh_layer_1/dense/bias", "shape": [100], "dtype": "float32"}, {"name": "inp_text/res_context/EncodeQuery/tanh_layer_2/dense/kernel", "shape": [100, 100], "dtype": "float32"}, {"name": "inp_text/res_context/EncodeQuery/tanh_layer_2/dense/bias", "shape": [100], "dtype": "float32"}, {"name": "Final/CombineQueryEncodings/Mean/reduction_indices", "shape": [1], "dtype": "int32"}, {"name": "Final/EncodeQuery/tanh_layer_0/dense/kernel", "shape": [100, 100], "dtype": "float32"}, {"name": "Final/EncodeQuery/tanh_layer_0/dense/bias", "shape": [100], "dtype": "float32"}, {"name": "Final/EncodeQuery/tanh_layer_1/dense/kernel", "shape": [100, 100], "dtype": "float32"}, {"name": "Final/EncodeQuery/tanh_layer_1/dense/bias", "shape": [100], "dtype": "float32"}, {"name": "Final/EncodeQuery/tanh_layer_2/dense/kernel", "shape": [100, 100], "dtype": "float32"}, {"name": "Final/EncodeQuery/tanh_layer_2/dense/bias", "shape": [100], "dtype": "float32"}, {"name": "Final/EncodeResult/mul/x", "shape": [], "dtype": "float32"}, {"name": "Final/EncodeResult/l2_normalize/Sum/reduction_indices", "shape": [], "dtype": "int32"}, {"name": "Final/EncodeResult/l2_normalize/Maximum/y", "shape": [], "dtype": "float32"}, {"name": "res_text/EncodeFeature/Transformer/reduce_all_tokens/ExpandDims/dim", "shape": [], "dtype": "int32"}, {"name": "res_text/EncodeFeature/Transformer/TransformerStack/Layer_2/TransformerLayer/FFN/conv2/Tensordot/Const", "shape": [1], "dtype": "int32"}, {"name": "res_text/EncodeFeature/Transformer/TransformerStack/Layer_2/TransformerLayer/FFN/conv2/Tensordot/axes", "shape": [1], "dtype": "int32"}, {"name": "res_text/EncodeFeature/Transformer/TransformerStack/Layer_2/TransformerLayer/FFN/conv2/Tensordot/GatherV2_1/axis", "shape": [], "dtype": "int32"}, {"name": "res_text/EncodeFeature/Transformer/TransformerStack/Layer_2/TransformerLayer/FFN/conv2/Tensordot/Const_1", "shape": [1], "dtype": "int32"}, {"name": "Transformer/Layer_2/TransformerLayer/FFN/conv2/kernel", "shape": [256, 120], "dtype": "float32"}, {"name": "res_text/EncodeFeature/Transformer/TransformerStack/Layer_2/TransformerLayer/FFN/conv1/Tensordot/Const", "shape": [1], "dtype": "int32"}, {"name": "res_text/EncodeFeature/Transformer/TransformerStack/Layer_2/TransformerLayer/FFN/conv1/Tensordot/axes", "shape": [1], "dtype": "int32"}, {"name": "res_text/EncodeFeature/Transformer/TransformerStack/Layer_2/TransformerLayer/FFN/conv1/Tensordot/GatherV2_1/axis", "shape": [], "dtype": "int32"}, {"name": "res_text/EncodeFeature/Transformer/TransformerStack/Layer_2/TransformerLayer/FFN/conv1/Tensordot/Const_1", "shape": [1], "dtype": "int32"}, {"name": "Transformer/Layer_2/TransformerLayer/FFN/conv1/kernel", "shape": [120, 256], "dtype": "float32"}, {"name": "Transformer/Layer_2/TransformerLayer/FFN/layer_prepostprocess/layer_norm/layer_norm_scale", "shape": [120], "dtype": "float32"}, {"name": "res_text/EncodeFeature/Transformer/TransformerStack/Layer_2/TransformerLayer/FFN/layer_prepostprocess/layer_norm/Mean_1/reduction_indices", "shape": [1], "dtype": "int32"}, {"name": "res_text/EncodeFeature/Transformer/TransformerStack/Layer_2/TransformerLayer/FFN/layer_prepostprocess/layer_norm/Const", "shape": [], "dtype": "float32"}, {"name": "res_text/EncodeFeature/Transformer/TransformerStack/Layer_2/TransformerLayer/FFN/layer_prepostprocess/layer_norm/Mean/reduction_indices", "shape": [1], "dtype": "int32"}, {"name": "Transformer/Layer_2/TransformerLayer/FFN/layer_prepostprocess/layer_norm/layer_norm_bias", "shape": [120], "dtype": "float32"}, {"name": "res_text/EncodeFeature/Transformer/TransformerStack/Layer_2/TransformerLayer/FFN/ExpandDims/dim", "shape": [], "dtype": "int32"}, {"name": "res_text/EncodeFeature/Transformer/TransformerStack/Layer_2/TransformerLayer/FFN/conv1/Tensordot/free", "shape": [2], "dtype": "int32"}, {"name": "res_text/EncodeFeature/Transformer/TransformerStack/Layer_2/TransformerLayer/FFN/conv1/Tensordot/GatherV2/axis", "shape": [], "dtype": "int32"}, {"name": "res_text/EncodeFeature/Transformer/TransformerStack/Layer_2/TransformerLayer/FFN/conv1/Tensordot/Const_2", "shape": [1], "dtype": "int32"}, {"name": "res_text/EncodeFeature/Transformer/TransformerStack/Layer_2/TransformerLayer/FFN/conv1/Tensordot/concat_1/axis", "shape": [], "dtype": "int32"}, {"name": "Transformer/Layer_2/TransformerLayer/FFN/conv1/bias", "shape": [256], "dtype": "float32"}, {"name": "res_text/EncodeFeature/Transformer/TransformerStack/Layer_2/TransformerLayer/FFN/conv2/Tensordot/free", "shape": [2], "dtype": "int32"}, {"name": "res_text/EncodeFeature/Transformer/TransformerStack/Layer_2/TransformerLayer/FFN/conv2/Tensordot/GatherV2/axis", "shape": [], "dtype": "int32"}, {"name": "res_text/EncodeFeature/Transformer/TransformerStack/Layer_2/TransformerLayer/FFN/conv2/Tensordot/Const_2", "shape": [1], "dtype": "int32"}, {"name": "res_text/EncodeFeature/Transformer/TransformerStack/Layer_2/TransformerLayer/FFN/conv2/Tensordot/concat_1/axis", "shape": [], "dtype": "int32"}, {"name": "Transformer/Layer_2/TransformerLayer/FFN/conv2/bias", "shape": [120], "dtype": "float32"}, {"name": "Transformer/Layer_2/TransformerLayer/MultiheadAttention/dense/kernel", "shape": [120, 120], "dtype": "float32"}, {"name": "Transformer/Layer_2/TransformerLayer/MultiheadAttention/dense/bias", "shape": [120], "dtype": "float32"}, {"name": "res_text/EncodeFeature/Transformer/TransformerStack/Layer_2/TransformerLayer/MultiheadAttention/to_3d/strided_slice/stack", "shape": [1], "dtype": "int32"}, {"name": "res_text/EncodeFeature/Transformer/TransformerStack/Layer_2/TransformerLayer/MultiheadAttention/to_3d/strided_slice/stack_1", "shape": [1], "dtype": "int32"}, {"name": "res_text/EncodeFeature/Transformer/TransformerStack/Layer_2/TransformerLayer/MultiheadAttention/to_3d/strided_slice/stack_2", "shape": [1], "dtype": "int32"}, {"name": "res_text/EncodeFeature/Transformer/TransformerStack/Layer_2/TransformerLayer/MultiheadAttention/to_3d/Reshape/shape/1", "shape": [], "dtype": "int32"}, {"name": "res_text/EncodeFeature/Transformer/TransformerStack/Layer_2/TransformerLayer/MultiheadAttention/to_3d/Reshape/shape/2", "shape": [], "dtype": "int32"}, {"name": "res_text/EncodeFeature/Transformer/TransformerStack/Layer_2/TransformerLayer/MultiheadAttention/split_heads/split_last_dimension/strided_slice/stack", "shape": [1], "dtype": "int32"}, {"name": "res_text/EncodeFeature/Transformer/TransformerStack/Layer_2/TransformerLayer/MultiheadAttention/split_heads/split_last_dimension/strided_slice/stack_1", "shape": [1], "dtype": "int32"}, {"name": "res_text/EncodeFeature/Transformer/TransformerStack/Layer_2/TransformerLayer/MultiheadAttention/split_heads/split_last_dimension/strided_slice/stack_2", "shape": [1], "dtype": "int32"}, {"name": "res_text/EncodeFeature/Transformer/TransformerStack/Layer_2/TransformerLayer/MultiheadAttention/split_heads/split_last_dimension/Reshape/shape/1", "shape": [], "dtype": "int32"}, {"name": "res_text/EncodeFeature/Transformer/TransformerStack/Layer_2/TransformerLayer/MultiheadAttention/split_heads/split_last_dimension/Reshape/shape/2", "shape": [], "dtype": "int32"}, {"name": "res_text/EncodeFeature/Transformer/TransformerStack/Layer_2/TransformerLayer/MultiheadAttention/split_heads/split_last_dimension/Reshape/shape/3", "shape": [], "dtype": "int32"}, {"name": "res_text/EncodeFeature/Transformer/TransformerStack/Layer_2/TransformerLayer/MultiheadAttention/split_heads/transpose/perm", "shape": [4], "dtype": "int32"}, {"name": "res_text/EncodeFeature/Transformer/TransformerStack/Layer_2/TransformerLayer/MultiheadAttention/mul/y", "shape": [], "dtype": "float32"}, {"name": "Transformer/Layer_2/TransformerLayer/MultiheadAttention/dense_1/kernel", "shape": [120, 120], "dtype": "float32"}, {"name": "Transformer/Layer_2/TransformerLayer/MultiheadAttention/dense_1/bias", "shape": [120], "dtype": "float32"}, {"name": "res_text/EncodeFeature/Transformer/TransformerStack/Layer_2/TransformerLayer/MultiheadAttention/to_3d_1/strided_slice/stack", "shape": [1], "dtype": "int32"}, {"name": "res_text/EncodeFeature/Transformer/TransformerStack/Layer_2/TransformerLayer/MultiheadAttention/to_3d_1/strided_slice/stack_1", "shape": [1], "dtype": "int32"}, {"name": "res_text/EncodeFeature/Transformer/TransformerStack/Layer_2/TransformerLayer/MultiheadAttention/to_3d_1/strided_slice/stack_2", "shape": [1], "dtype": "int32"}, {"name": "res_text/EncodeFeature/Transformer/TransformerStack/Layer_2/TransformerLayer/MultiheadAttention/to_3d_1/Reshape/shape/1", "shape": [], "dtype": "int32"}, {"name": "res_text/EncodeFeature/Transformer/TransformerStack/Layer_2/TransformerLayer/MultiheadAttention/to_3d_1/Reshape/shape/2", "shape": [], "dtype": "int32"}, {"name": "res_text/EncodeFeature/Transformer/TransformerStack/Layer_2/TransformerLayer/MultiheadAttention/split_heads_1/split_last_dimension/strided_slice/stack", "shape": [1], "dtype": "int32"}, {"name": "res_text/EncodeFeature/Transformer/TransformerStack/Layer_2/TransformerLayer/MultiheadAttention/split_heads_1/split_last_dimension/strided_slice/stack_1", "shape": [1], "dtype": "int32"}, {"name": "res_text/EncodeFeature/Transformer/TransformerStack/Layer_2/TransformerLayer/MultiheadAttention/split_heads_1/split_last_dimension/strided_slice/stack_2", "shape": [1], "dtype": "int32"}, {"name": "res_text/EncodeFeature/Transformer/TransformerStack/Layer_2/TransformerLayer/MultiheadAttention/split_heads_1/split_last_dimension/Reshape/shape/1", "shape": [], "dtype": "int32"}, {"name": "res_text/EncodeFeature/Transformer/TransformerStack/Layer_2/TransformerLayer/MultiheadAttention/split_heads_1/split_last_dimension/Reshape/shape/2", "shape": [], "dtype": "int32"}, {"name": "res_text/EncodeFeature/Transformer/TransformerStack/Layer_2/TransformerLayer/MultiheadAttention/split_heads_1/split_last_dimension/Reshape/shape/3", "shape": [], "dtype": "int32"}, {"name": "res_text/EncodeFeature/Transformer/TransformerStack/Layer_2/TransformerLayer/MultiheadAttention/split_heads_1/transpose/perm", "shape": [4], "dtype": "int32"}, {"name": "res_text/EncodeFeature/Transformer/TransformerStack/Layer_2/TransformerLayer/attention_bias_ignore_padding/mul/y", "shape": [], "dtype": "float32"}, {"name": "res_text/EncodeFeature/Transformer/TransformerStack/Layer_2/TransformerLayer/attention_bias_ignore_padding/ExpandDims/dim", "shape": [], "dtype": "int32"}, {"name": "res_text/EncodeFeature/Transformer/TransformerStack/Layer_2/TransformerLayer/attention_bias_ignore_padding/ExpandDims_1/dim", "shape": [], "dtype": "int32"}, {"name": "Transformer/Layer_2/TransformerLayer/layer_prepostprocess/layer_norm/layer_norm_scale", "shape": [120], "dtype": "float32"}, {"name": "res_text/EncodeFeature/Transformer/TransformerStack/Layer_2/TransformerLayer/layer_prepostprocess/layer_norm/Mean_1/reduction_indices", "shape": [1], "dtype": "int32"}, {"name": "res_text/EncodeFeature/Transformer/TransformerStack/Layer_2/TransformerLayer/layer_prepostprocess/layer_norm/Const", "shape": [], "dtype": "float32"}, {"name": "res_text/EncodeFeature/Transformer/TransformerStack/Layer_2/TransformerLayer/layer_prepostprocess/layer_norm/Mean/reduction_indices", "shape": [1], "dtype": "int32"}, {"name": "Transformer/Layer_2/TransformerLayer/layer_prepostprocess/layer_norm/layer_norm_bias", "shape": [120], "dtype": "float32"}, {"name": "Transformer/Layer_2/TransformerLayer/MultiheadAttention/dense_2/kernel", "shape": [120, 120], "dtype": "float32"}, {"name": "Transformer/Layer_2/TransformerLayer/MultiheadAttention/dense_2/bias", "shape": [120], "dtype": "float32"}, {"name": "res_text/EncodeFeature/Transformer/TransformerStack/Layer_2/TransformerLayer/MultiheadAttention/to_3d_2/strided_slice/stack", "shape": [1], "dtype": "int32"}, {"name": "res_text/EncodeFeature/Transformer/TransformerStack/Layer_2/TransformerLayer/MultiheadAttention/to_3d_2/strided_slice/stack_1", "shape": [1], "dtype": "int32"}, {"name": "res_text/EncodeFeature/Transformer/TransformerStack/Layer_2/TransformerLayer/MultiheadAttention/to_3d_2/strided_slice/stack_2", "shape": [1], "dtype": "int32"}, {"name": "res_text/EncodeFeature/Transformer/TransformerStack/Layer_2/TransformerLayer/MultiheadAttention/to_3d_2/Reshape/shape/1", "shape": [], "dtype": "int32"}, {"name": "res_text/EncodeFeature/Transformer/TransformerStack/Layer_2/TransformerLayer/MultiheadAttention/to_3d_2/Reshape/shape/2", "shape": [], "dtype": "int32"}, {"name": "res_text/EncodeFeature/Transformer/TransformerStack/Layer_2/TransformerLayer/MultiheadAttention/split_heads_2/split_last_dimension/strided_slice/stack", "shape": [1], "dtype": "int32"}, {"name": "res_text/EncodeFeature/Transformer/TransformerStack/Layer_2/TransformerLayer/MultiheadAttention/split_heads_2/split_last_dimension/strided_slice/stack_1", "shape": [1], "dtype": "int32"}, {"name": "res_text/EncodeFeature/Transformer/TransformerStack/Layer_2/TransformerLayer/MultiheadAttention/split_heads_2/split_last_dimension/strided_slice/stack_2", "shape": [1], "dtype": "int32"}, {"name": "res_text/EncodeFeature/Transformer/TransformerStack/Layer_2/TransformerLayer/MultiheadAttention/split_heads_2/split_last_dimension/Reshape/shape/1", "shape": [], "dtype": "int32"}, {"name": "res_text/EncodeFeature/Transformer/TransformerStack/Layer_2/TransformerLayer/MultiheadAttention/split_heads_2/split_last_dimension/Reshape/shape/2", "shape": [], "dtype": "int32"}, {"name": "res_text/EncodeFeature/Transformer/TransformerStack/Layer_2/TransformerLayer/MultiheadAttention/split_heads_2/split_last_dimension/Reshape/shape/3", "shape": [], "dtype": "int32"}, {"name": "res_text/EncodeFeature/Transformer/TransformerStack/Layer_2/TransformerLayer/MultiheadAttention/split_heads_2/transpose/perm", "shape": [4], "dtype": "int32"}, {"name": "res_text/EncodeFeature/Transformer/TransformerStack/Layer_2/TransformerLayer/MultiheadAttention/combine_heads/transpose/perm", "shape": [4], "dtype": "int32"}, {"name": "res_text/EncodeFeature/Transformer/TransformerStack/Layer_2/TransformerLayer/MultiheadAttention/to_2d/strided_slice/stack", "shape": [1], "dtype": "int32"}, {"name": "res_text/EncodeFeature/Transformer/TransformerStack/Layer_2/TransformerLayer/MultiheadAttention/to_2d/strided_slice/stack_1", "shape": [1], "dtype": "int32"}, {"name": "res_text/EncodeFeature/Transformer/TransformerStack/Layer_2/TransformerLayer/MultiheadAttention/to_2d/strided_slice/stack_2", "shape": [1], "dtype": "int32"}, {"name": "res_text/EncodeFeature/Transformer/TransformerStack/Layer_2/TransformerLayer/MultiheadAttention/to_2d/mul/y", "shape": [], "dtype": "int32"}, {"name": "res_text/EncodeFeature/Transformer/TransformerStack/Layer_2/TransformerLayer/MultiheadAttention/to_2d/Reshape/shape/1", "shape": [], "dtype": "int32"}, {"name": "Transformer/Layer_2/TransformerLayer/MultiheadAttention/output_transform/kernel", "shape": [120, 120], "dtype": "float32"}, {"name": "Transformer/Layer_2/TransformerLayer/MultiheadAttention/output_transform/bias", "shape": [120], "dtype": "float32"}, {"name": "res_text/EncodeFeature/Transformer/TransformerStack/Layer_1/TransformerLayer/FFN/conv2/Tensordot/Const", "shape": [1], "dtype": "int32"}, {"name": "res_text/EncodeFeature/Transformer/TransformerStack/Layer_1/TransformerLayer/FFN/conv2/Tensordot/axes", "shape": [1], "dtype": "int32"}, {"name": "res_text/EncodeFeature/Transformer/TransformerStack/Layer_1/TransformerLayer/FFN/conv2/Tensordot/GatherV2_1/axis", "shape": [], "dtype": "int32"}, {"name": "res_text/EncodeFeature/Transformer/TransformerStack/Layer_1/TransformerLayer/FFN/conv2/Tensordot/Const_1", "shape": [1], "dtype": "int32"}, {"name": "Transformer/Layer_1/TransformerLayer/FFN/conv2/kernel", "shape": [256, 120], "dtype": "float32"}, {"name": "res_text/EncodeFeature/Transformer/TransformerStack/Layer_1/TransformerLayer/FFN/conv1/Tensordot/Const", "shape": [1], "dtype": "int32"}, {"name": "res_text/EncodeFeature/Transformer/TransformerStack/Layer_1/TransformerLayer/FFN/conv1/Tensordot/axes", "shape": [1], "dtype": "int32"}, {"name": "res_text/EncodeFeature/Transformer/TransformerStack/Layer_1/TransformerLayer/FFN/conv1/Tensordot/GatherV2_1/axis", "shape": [], "dtype": "int32"}, {"name": "res_text/EncodeFeature/Transformer/TransformerStack/Layer_1/TransformerLayer/FFN/conv1/Tensordot/Const_1", "shape": [1], "dtype": "int32"}, {"name": "Transformer/Layer_1/TransformerLayer/FFN/conv1/kernel", "shape": [120, 256], "dtype": "float32"}, {"name": "Transformer/Layer_1/TransformerLayer/FFN/layer_prepostprocess/layer_norm/layer_norm_scale", "shape": [120], "dtype": "float32"}, {"name": "res_text/EncodeFeature/Transformer/TransformerStack/Layer_1/TransformerLayer/FFN/layer_prepostprocess/layer_norm/Mean_1/reduction_indices", "shape": [1], "dtype": "int32"}, {"name": "res_text/EncodeFeature/Transformer/TransformerStack/Layer_1/TransformerLayer/FFN/layer_prepostprocess/layer_norm/Const", "shape": [], "dtype": "float32"}, {"name": "res_text/EncodeFeature/Transformer/TransformerStack/Layer_1/TransformerLayer/FFN/layer_prepostprocess/layer_norm/Mean/reduction_indices", "shape": [1], "dtype": "int32"}, {"name": "Transformer/Layer_1/TransformerLayer/FFN/layer_prepostprocess/layer_norm/layer_norm_bias", "shape": [120], "dtype": "float32"}, {"name": "res_text/EncodeFeature/Transformer/TransformerStack/Layer_1/TransformerLayer/FFN/ExpandDims/dim", "shape": [], "dtype": "int32"}, {"name": "res_text/EncodeFeature/Transformer/TransformerStack/Layer_1/TransformerLayer/FFN/conv1/Tensordot/free", "shape": [2], "dtype": "int32"}, {"name": "res_text/EncodeFeature/Transformer/TransformerStack/Layer_1/TransformerLayer/FFN/conv1/Tensordot/GatherV2/axis", "shape": [], "dtype": "int32"}, {"name": "res_text/EncodeFeature/Transformer/TransformerStack/Layer_1/TransformerLayer/FFN/conv1/Tensordot/Const_2", "shape": [1], "dtype": "int32"}, {"name": "res_text/EncodeFeature/Transformer/TransformerStack/Layer_1/TransformerLayer/FFN/conv1/Tensordot/concat_1/axis", "shape": [], "dtype": "int32"}, {"name": "Transformer/Layer_1/TransformerLayer/FFN/conv1/bias", "shape": [256], "dtype": "float32"}, {"name": "res_text/EncodeFeature/Transformer/TransformerStack/Layer_1/TransformerLayer/FFN/conv2/Tensordot/free", "shape": [2], "dtype": "int32"}, {"name": "res_text/EncodeFeature/Transformer/TransformerStack/Layer_1/TransformerLayer/FFN/conv2/Tensordot/GatherV2/axis", "shape": [], "dtype": "int32"}, {"name": "res_text/EncodeFeature/Transformer/TransformerStack/Layer_1/TransformerLayer/FFN/conv2/Tensordot/Const_2", "shape": [1], "dtype": "int32"}, {"name": "res_text/EncodeFeature/Transformer/TransformerStack/Layer_1/TransformerLayer/FFN/conv2/Tensordot/concat_1/axis", "shape": [], "dtype": "int32"}, {"name": "Transformer/Layer_1/TransformerLayer/FFN/conv2/bias", "shape": [120], "dtype": "float32"}, {"name": "Transformer/Layer_1/TransformerLayer/MultiheadAttention/dense/kernel", "shape": [120, 120], "dtype": "float32"}, {"name": "Transformer/Layer_1/TransformerLayer/MultiheadAttention/dense/bias", "shape": [120], "dtype": "float32"}, {"name": "res_text/EncodeFeature/Transformer/TransformerStack/Layer_1/TransformerLayer/MultiheadAttention/to_3d/strided_slice/stack", "shape": [1], "dtype": "int32"}, {"name": "res_text/EncodeFeature/Transformer/TransformerStack/Layer_1/TransformerLayer/MultiheadAttention/to_3d/strided_slice/stack_1", "shape": [1], "dtype": "int32"}, {"name": "res_text/EncodeFeature/Transformer/TransformerStack/Layer_1/TransformerLayer/MultiheadAttention/to_3d/strided_slice/stack_2", "shape": [1], "dtype": "int32"}, {"name": "res_text/EncodeFeature/Transformer/TransformerStack/Layer_1/TransformerLayer/MultiheadAttention/to_3d/Reshape/shape/1", "shape": [], "dtype": "int32"}, {"name": "res_text/EncodeFeature/Transformer/TransformerStack/Layer_1/TransformerLayer/MultiheadAttention/to_3d/Reshape/shape/2", "shape": [], "dtype": "int32"}, {"name": "res_text/EncodeFeature/Transformer/TransformerStack/Layer_1/TransformerLayer/MultiheadAttention/split_heads/split_last_dimension/strided_slice/stack", "shape": [1], "dtype": "int32"}, {"name": "res_text/EncodeFeature/Transformer/TransformerStack/Layer_1/TransformerLayer/MultiheadAttention/split_heads/split_last_dimension/strided_slice/stack_1", "shape": [1], "dtype": "int32"}, {"name": "res_text/EncodeFeature/Transformer/TransformerStack/Layer_1/TransformerLayer/MultiheadAttention/split_heads/split_last_dimension/strided_slice/stack_2", "shape": [1], "dtype": "int32"}, {"name": "res_text/EncodeFeature/Transformer/TransformerStack/Layer_1/TransformerLayer/MultiheadAttention/split_heads/split_last_dimension/Reshape/shape/1", "shape": [], "dtype": "int32"}, {"name": "res_text/EncodeFeature/Transformer/TransformerStack/Layer_1/TransformerLayer/MultiheadAttention/split_heads/split_last_dimension/Reshape/shape/2", "shape": [], "dtype": "int32"}, {"name": "res_text/EncodeFeature/Transformer/TransformerStack/Layer_1/TransformerLayer/MultiheadAttention/split_heads/split_last_dimension/Reshape/shape/3", "shape": [], "dtype": "int32"}, {"name": "res_text/EncodeFeature/Transformer/TransformerStack/Layer_1/TransformerLayer/MultiheadAttention/split_heads/transpose/perm", "shape": [4], "dtype": "int32"}, {"name": "res_text/EncodeFeature/Transformer/TransformerStack/Layer_1/TransformerLayer/MultiheadAttention/mul/y", "shape": [], "dtype": "float32"}, {"name": "Transformer/Layer_1/TransformerLayer/MultiheadAttention/dense_1/kernel", "shape": [120, 120], "dtype": "float32"}, {"name": "Transformer/Layer_1/TransformerLayer/MultiheadAttention/dense_1/bias", "shape": [120], "dtype": "float32"}, {"name": "res_text/EncodeFeature/Transformer/TransformerStack/Layer_1/TransformerLayer/MultiheadAttention/to_3d_1/strided_slice/stack", "shape": [1], "dtype": "int32"}, {"name": "res_text/EncodeFeature/Transformer/TransformerStack/Layer_1/TransformerLayer/MultiheadAttention/to_3d_1/strided_slice/stack_1", "shape": [1], "dtype": "int32"}, {"name": "res_text/EncodeFeature/Transformer/TransformerStack/Layer_1/TransformerLayer/MultiheadAttention/to_3d_1/strided_slice/stack_2", "shape": [1], "dtype": "int32"}, {"name": "res_text/EncodeFeature/Transformer/TransformerStack/Layer_1/TransformerLayer/MultiheadAttention/to_3d_1/Reshape/shape/1", "shape": [], "dtype": "int32"}, {"name": "res_text/EncodeFeature/Transformer/TransformerStack/Layer_1/TransformerLayer/MultiheadAttention/to_3d_1/Reshape/shape/2", "shape": [], "dtype": "int32"}, {"name": "res_text/EncodeFeature/Transformer/TransformerStack/Layer_1/TransformerLayer/MultiheadAttention/split_heads_1/split_last_dimension/strided_slice/stack", "shape": [1], "dtype": "int32"}, {"name": "res_text/EncodeFeature/Transformer/TransformerStack/Layer_1/TransformerLayer/MultiheadAttention/split_heads_1/split_last_dimension/strided_slice/stack_1", "shape": [1], "dtype": "int32"}, {"name": "res_text/EncodeFeature/Transformer/TransformerStack/Layer_1/TransformerLayer/MultiheadAttention/split_heads_1/split_last_dimension/strided_slice/stack_2", "shape": [1], "dtype": "int32"}, {"name": "res_text/EncodeFeature/Transformer/TransformerStack/Layer_1/TransformerLayer/MultiheadAttention/split_heads_1/split_last_dimension/Reshape/shape/1", "shape": [], "dtype": "int32"}, {"name": "res_text/EncodeFeature/Transformer/TransformerStack/Layer_1/TransformerLayer/MultiheadAttention/split_heads_1/split_last_dimension/Reshape/shape/2", "shape": [], "dtype": "int32"}, {"name": "res_text/EncodeFeature/Transformer/TransformerStack/Layer_1/TransformerLayer/MultiheadAttention/split_heads_1/split_last_dimension/Reshape/shape/3", "shape": [], "dtype": "int32"}, {"name": "res_text/EncodeFeature/Transformer/TransformerStack/Layer_1/TransformerLayer/MultiheadAttention/split_heads_1/transpose/perm", "shape": [4], "dtype": "int32"}, {"name": "res_text/EncodeFeature/Transformer/TransformerStack/Layer_1/TransformerLayer/attention_bias_ignore_padding/mul/y", "shape": [], "dtype": "float32"}, {"name": "res_text/EncodeFeature/Transformer/TransformerStack/Layer_1/TransformerLayer/attention_bias_ignore_padding/ExpandDims/dim", "shape": [], "dtype": "int32"}, {"name": "res_text/EncodeFeature/Transformer/TransformerStack/Layer_1/TransformerLayer/attention_bias_ignore_padding/ExpandDims_1/dim", "shape": [], "dtype": "int32"}, {"name": "Transformer/Layer_1/TransformerLayer/layer_prepostprocess/layer_norm/layer_norm_scale", "shape": [120], "dtype": "float32"}, {"name": "res_text/EncodeFeature/Transformer/TransformerStack/Layer_1/TransformerLayer/layer_prepostprocess/layer_norm/Mean_1/reduction_indices", "shape": [1], "dtype": "int32"}, {"name": "res_text/EncodeFeature/Transformer/TransformerStack/Layer_1/TransformerLayer/layer_prepostprocess/layer_norm/Const", "shape": [], "dtype": "float32"}, {"name": "res_text/EncodeFeature/Transformer/TransformerStack/Layer_1/TransformerLayer/layer_prepostprocess/layer_norm/Mean/reduction_indices", "shape": [1], "dtype": "int32"}, {"name": "Transformer/Layer_1/TransformerLayer/layer_prepostprocess/layer_norm/layer_norm_bias", "shape": [120], "dtype": "float32"}, {"name": "Transformer/Layer_1/TransformerLayer/MultiheadAttention/dense_2/kernel", "shape": [120, 120], "dtype": "float32"}, {"name": "Transformer/Layer_1/TransformerLayer/MultiheadAttention/dense_2/bias", "shape": [120], "dtype": "float32"}, {"name": "res_text/EncodeFeature/Transformer/TransformerStack/Layer_1/TransformerLayer/MultiheadAttention/to_3d_2/strided_slice/stack", "shape": [1], "dtype": "int32"}, {"name": "res_text/EncodeFeature/Transformer/TransformerStack/Layer_1/TransformerLayer/MultiheadAttention/to_3d_2/strided_slice/stack_1", "shape": [1], "dtype": "int32"}, {"name": "res_text/EncodeFeature/Transformer/TransformerStack/Layer_1/TransformerLayer/MultiheadAttention/to_3d_2/strided_slice/stack_2", "shape": [1], "dtype": "int32"}, {"name": "res_text/EncodeFeature/Transformer/TransformerStack/Layer_1/TransformerLayer/MultiheadAttention/to_3d_2/Reshape/shape/1", "shape": [], "dtype": "int32"}, {"name": "res_text/EncodeFeature/Transformer/TransformerStack/Layer_1/TransformerLayer/MultiheadAttention/to_3d_2/Reshape/shape/2", "shape": [], "dtype": "int32"}, {"name": "res_text/EncodeFeature/Transformer/TransformerStack/Layer_1/TransformerLayer/MultiheadAttention/split_heads_2/split_last_dimension/strided_slice/stack", "shape": [1], "dtype": "int32"}, {"name": "res_text/EncodeFeature/Transformer/TransformerStack/Layer_1/TransformerLayer/MultiheadAttention/split_heads_2/split_last_dimension/strided_slice/stack_1", "shape": [1], "dtype": "int32"}, {"name": "res_text/EncodeFeature/Transformer/TransformerStack/Layer_1/TransformerLayer/MultiheadAttention/split_heads_2/split_last_dimension/strided_slice/stack_2", "shape": [1], "dtype": "int32"}, {"name": "res_text/EncodeFeature/Transformer/TransformerStack/Layer_1/TransformerLayer/MultiheadAttention/split_heads_2/split_last_dimension/Reshape/shape/1", "shape": [], "dtype": "int32"}, {"name": "res_text/EncodeFeature/Transformer/TransformerStack/Layer_1/TransformerLayer/MultiheadAttention/split_heads_2/split_last_dimension/Reshape/shape/2", "shape": [], "dtype": "int32"}, {"name": "res_text/EncodeFeature/Transformer/TransformerStack/Layer_1/TransformerLayer/MultiheadAttention/split_heads_2/split_last_dimension/Reshape/shape/3", "shape": [], "dtype": "int32"}, {"name": "res_text/EncodeFeature/Transformer/TransformerStack/Layer_1/TransformerLayer/MultiheadAttention/split_heads_2/transpose/perm", "shape": [4], "dtype": "int32"}, {"name": "res_text/EncodeFeature/Transformer/TransformerStack/Layer_1/TransformerLayer/MultiheadAttention/combine_heads/transpose/perm", "shape": [4], "dtype": "int32"}, {"name": "res_text/EncodeFeature/Transformer/TransformerStack/Layer_1/TransformerLayer/MultiheadAttention/to_2d/strided_slice/stack", "shape": [1], "dtype": "int32"}, {"name": "res_text/EncodeFeature/Transformer/TransformerStack/Layer_1/TransformerLayer/MultiheadAttention/to_2d/strided_slice/stack_1", "shape": [1], "dtype": "int32"}, {"name": "res_text/EncodeFeature/Transformer/TransformerStack/Layer_1/TransformerLayer/MultiheadAttention/to_2d/strided_slice/stack_2", "shape": [1], "dtype": "int32"}, {"name": "res_text/EncodeFeature/Transformer/TransformerStack/Layer_1/TransformerLayer/MultiheadAttention/to_2d/mul/y", "shape": [], "dtype": "int32"}, {"name": "res_text/EncodeFeature/Transformer/TransformerStack/Layer_1/TransformerLayer/MultiheadAttention/to_2d/Reshape/shape/1", "shape": [], "dtype": "int32"}, {"name": "Transformer/Layer_1/TransformerLayer/MultiheadAttention/output_transform/kernel", "shape": [120, 120], "dtype": "float32"}, {"name": "Transformer/Layer_1/TransformerLayer/MultiheadAttention/output_transform/bias", "shape": [120], "dtype": "float32"}, {"name": "res_text/EncodeFeature/Transformer/TransformerStack/Layer_0/TransformerLayer/FFN/conv2/Tensordot/Const", "shape": [1], "dtype": "int32"}, {"name": "res_text/EncodeFeature/Transformer/TransformerStack/Layer_0/TransformerLayer/FFN/conv2/Tensordot/axes", "shape": [1], "dtype": "int32"}, {"name": "res_text/EncodeFeature/Transformer/TransformerStack/Layer_0/TransformerLayer/FFN/conv2/Tensordot/GatherV2_1/axis", "shape": [], "dtype": "int32"}, {"name": "res_text/EncodeFeature/Transformer/TransformerStack/Layer_0/TransformerLayer/FFN/conv2/Tensordot/Const_1", "shape": [1], "dtype": "int32"}, {"name": "Transformer/Layer_0/TransformerLayer/FFN/conv2/kernel", "shape": [256, 120], "dtype": "float32"}, {"name": "res_text/EncodeFeature/Transformer/TransformerStack/Layer_0/TransformerLayer/FFN/conv1/Tensordot/Const", "shape": [1], "dtype": "int32"}, {"name": "res_text/EncodeFeature/Transformer/TransformerStack/Layer_0/TransformerLayer/FFN/conv1/Tensordot/axes", "shape": [1], "dtype": "int32"}, {"name": "res_text/EncodeFeature/Transformer/TransformerStack/Layer_0/TransformerLayer/FFN/conv1/Tensordot/GatherV2_1/axis", "shape": [], "dtype": "int32"}, {"name": "res_text/EncodeFeature/Transformer/TransformerStack/Layer_0/TransformerLayer/FFN/conv1/Tensordot/Const_1", "shape": [1], "dtype": "int32"}, {"name": "Transformer/Layer_0/TransformerLayer/FFN/conv1/kernel", "shape": [120, 256], "dtype": "float32"}, {"name": "Transformer/Layer_0/TransformerLayer/FFN/layer_prepostprocess/layer_norm/layer_norm_scale", "shape": [120], "dtype": "float32"}, {"name": "res_text/EncodeFeature/Transformer/TransformerStack/Layer_0/TransformerLayer/FFN/layer_prepostprocess/layer_norm/Mean_1/reduction_indices", "shape": [1], "dtype": "int32"}, {"name": "res_text/EncodeFeature/Transformer/TransformerStack/Layer_0/TransformerLayer/FFN/layer_prepostprocess/layer_norm/Const", "shape": [], "dtype": "float32"}, {"name": "res_text/EncodeFeature/Transformer/TransformerStack/Layer_0/TransformerLayer/FFN/layer_prepostprocess/layer_norm/Mean/reduction_indices", "shape": [1], "dtype": "int32"}, {"name": "Transformer/Layer_0/TransformerLayer/FFN/layer_prepostprocess/layer_norm/layer_norm_bias", "shape": [120], "dtype": "float32"}, {"name": "res_text/EncodeFeature/Transformer/TransformerStack/Layer_0/TransformerLayer/FFN/ExpandDims/dim", "shape": [], "dtype": "int32"}, {"name": "res_text/EncodeFeature/Transformer/TransformerStack/Layer_0/TransformerLayer/FFN/conv1/Tensordot/free", "shape": [2], "dtype": "int32"}, {"name": "res_text/EncodeFeature/Transformer/TransformerStack/Layer_0/TransformerLayer/FFN/conv1/Tensordot/GatherV2/axis", "shape": [], "dtype": "int32"}, {"name": "res_text/EncodeFeature/Transformer/TransformerStack/Layer_0/TransformerLayer/FFN/conv1/Tensordot/Const_2", "shape": [1], "dtype": "int32"}, {"name": "res_text/EncodeFeature/Transformer/TransformerStack/Layer_0/TransformerLayer/FFN/conv1/Tensordot/concat_1/axis", "shape": [], "dtype": "int32"}, {"name": "Transformer/Layer_0/TransformerLayer/FFN/conv1/bias", "shape": [256], "dtype": "float32"}, {"name": "res_text/EncodeFeature/Transformer/TransformerStack/Layer_0/TransformerLayer/FFN/conv2/Tensordot/free", "shape": [2], "dtype": "int32"}, {"name": "res_text/EncodeFeature/Transformer/TransformerStack/Layer_0/TransformerLayer/FFN/conv2/Tensordot/GatherV2/axis", "shape": [], "dtype": "int32"}, {"name": "res_text/EncodeFeature/Transformer/TransformerStack/Layer_0/TransformerLayer/FFN/conv2/Tensordot/Const_2", "shape": [1], "dtype": "int32"}, {"name": "res_text/EncodeFeature/Transformer/TransformerStack/Layer_0/TransformerLayer/FFN/conv2/Tensordot/concat_1/axis", "shape": [], "dtype": "int32"}, {"name": "Transformer/Layer_0/TransformerLayer/FFN/conv2/bias", "shape": [120], "dtype": "float32"}, {"name": "Transformer/Layer_0/TransformerLayer/MultiheadAttention/dense/kernel", "shape": [100, 100], "dtype": "float32"}, {"name": "Transformer/Layer_0/TransformerLayer/MultiheadAttention/dense/bias", "shape": [100], "dtype": "float32"}, {"name": "res_text/EncodeFeature/Transformer/TransformerStack/Layer_0/TransformerLayer/MultiheadAttention/to_3d/strided_slice/stack", "shape": [1], "dtype": "int32"}, {"name": "res_text/EncodeFeature/Transformer/TransformerStack/Layer_0/TransformerLayer/MultiheadAttention/to_3d/strided_slice/stack_1", "shape": [1], "dtype": "int32"}, {"name": "res_text/EncodeFeature/Transformer/TransformerStack/Layer_0/TransformerLayer/MultiheadAttention/to_3d/strided_slice/stack_2", "shape": [1], "dtype": "int32"}, {"name": "res_text/EncodeFeature/Transformer/TransformerStack/Layer_0/TransformerLayer/MultiheadAttention/to_3d/Reshape/shape/1", "shape": [], "dtype": "int32"}, {"name": "res_text/EncodeFeature/Transformer/TransformerStack/Layer_0/TransformerLayer/MultiheadAttention/to_3d/Reshape/shape/2", "shape": [], "dtype": "int32"}, {"name": "res_text/EncodeFeature/Transformer/TransformerStack/Layer_0/TransformerLayer/MultiheadAttention/split_heads/split_last_dimension/strided_slice/stack", "shape": [1], "dtype": "int32"}, {"name": "res_text/EncodeFeature/Transformer/TransformerStack/Layer_0/TransformerLayer/MultiheadAttention/split_heads/split_last_dimension/strided_slice/stack_1", "shape": [1], "dtype": "int32"}, {"name": "res_text/EncodeFeature/Transformer/TransformerStack/Layer_0/TransformerLayer/MultiheadAttention/split_heads/split_last_dimension/strided_slice/stack_2", "shape": [1], "dtype": "int32"}, {"name": "res_text/EncodeFeature/Transformer/TransformerStack/Layer_0/TransformerLayer/MultiheadAttention/split_heads/split_last_dimension/Reshape/shape/1", "shape": [], "dtype": "int32"}, {"name": "res_text/EncodeFeature/Transformer/TransformerStack/Layer_0/TransformerLayer/MultiheadAttention/split_heads/split_last_dimension/Reshape/shape/2", "shape": [], "dtype": "int32"}, {"name": "res_text/EncodeFeature/Transformer/TransformerStack/Layer_0/TransformerLayer/MultiheadAttention/split_heads/split_last_dimension/Reshape/shape/3", "shape": [], "dtype": "int32"}, {"name": "res_text/EncodeFeature/Transformer/TransformerStack/Layer_0/TransformerLayer/MultiheadAttention/split_heads/transpose/perm", "shape": [4], "dtype": "int32"}, {"name": "res_text/EncodeFeature/Transformer/TransformerStack/Layer_0/TransformerLayer/MultiheadAttention/mul/y", "shape": [], "dtype": "float32"}, {"name": "Transformer/Layer_0/TransformerLayer/MultiheadAttention/dense_1/kernel", "shape": [100, 100], "dtype": "float32"}, {"name": "Transformer/Layer_0/TransformerLayer/MultiheadAttention/dense_1/bias", "shape": [100], "dtype": "float32"}, {"name": "res_text/EncodeFeature/Transformer/TransformerStack/Layer_0/TransformerLayer/MultiheadAttention/to_3d_1/strided_slice/stack", "shape": [1], "dtype": "int32"}, {"name": "res_text/EncodeFeature/Transformer/TransformerStack/Layer_0/TransformerLayer/MultiheadAttention/to_3d_1/strided_slice/stack_1", "shape": [1], "dtype": "int32"}, {"name": "res_text/EncodeFeature/Transformer/TransformerStack/Layer_0/TransformerLayer/MultiheadAttention/to_3d_1/strided_slice/stack_2", "shape": [1], "dtype": "int32"}, {"name": "res_text/EncodeFeature/Transformer/TransformerStack/Layer_0/TransformerLayer/MultiheadAttention/to_3d_1/Reshape/shape/1", "shape": [], "dtype": "int32"}, {"name": "res_text/EncodeFeature/Transformer/TransformerStack/Layer_0/TransformerLayer/MultiheadAttention/to_3d_1/Reshape/shape/2", "shape": [], "dtype": "int32"}, {"name": "res_text/EncodeFeature/Transformer/TransformerStack/Layer_0/TransformerLayer/MultiheadAttention/split_heads_1/split_last_dimension/strided_slice/stack", "shape": [1], "dtype": "int32"}, {"name": "res_text/EncodeFeature/Transformer/TransformerStack/Layer_0/TransformerLayer/MultiheadAttention/split_heads_1/split_last_dimension/strided_slice/stack_1", "shape": [1], "dtype": "int32"}, {"name": "res_text/EncodeFeature/Transformer/TransformerStack/Layer_0/TransformerLayer/MultiheadAttention/split_heads_1/split_last_dimension/strided_slice/stack_2", "shape": [1], "dtype": "int32"}, {"name": "res_text/EncodeFeature/Transformer/TransformerStack/Layer_0/TransformerLayer/MultiheadAttention/split_heads_1/split_last_dimension/Reshape/shape/1", "shape": [], "dtype": "int32"}, {"name": "res_text/EncodeFeature/Transformer/TransformerStack/Layer_0/TransformerLayer/MultiheadAttention/split_heads_1/split_last_dimension/Reshape/shape/2", "shape": [], "dtype": "int32"}, {"name": "res_text/EncodeFeature/Transformer/TransformerStack/Layer_0/TransformerLayer/MultiheadAttention/split_heads_1/split_last_dimension/Reshape/shape/3", "shape": [], "dtype": "int32"}, {"name": "res_text/EncodeFeature/Transformer/TransformerStack/Layer_0/TransformerLayer/MultiheadAttention/split_heads_1/transpose/perm", "shape": [4], "dtype": "int32"}, {"name": "res_text/EncodeFeature/Transformer/TransformerStack/Layer_0/TransformerLayer/attention_bias_ignore_padding/mul/y", "shape": [], "dtype": "float32"}, {"name": "res_text/EncodeFeature/Transformer/TransformerStack/Layer_0/TransformerLayer/attention_bias_ignore_padding/ExpandDims/dim", "shape": [], "dtype": "int32"}, {"name": "res_text/EncodeFeature/Transformer/TransformerStack/Layer_0/TransformerLayer/attention_bias_ignore_padding/ExpandDims_1/dim", "shape": [], "dtype": "int32"}, {"name": "Transformer/Layer_0/TransformerLayer/layer_prepostprocess/layer_norm/layer_norm_scale", "shape": [100], "dtype": "float32"}, {"name": "res_text/EncodeFeature/Transformer/TransformerStack/Layer_0/TransformerLayer/layer_prepostprocess/layer_norm/Mean_1/reduction_indices", "shape": [1], "dtype": "int32"}, {"name": "res_text/EncodeFeature/Transformer/TransformerStack/Layer_0/TransformerLayer/layer_prepostprocess/layer_norm/Const", "shape": [], "dtype": "float32"}, {"name": "res_text/EncodeFeature/Transformer/TransformerStack/Layer_0/TransformerLayer/layer_prepostprocess/layer_norm/Mean/reduction_indices", "shape": [1], "dtype": "int32"}, {"name": "Transformer/Layer_0/TransformerLayer/layer_prepostprocess/layer_norm/layer_norm_bias", "shape": [100], "dtype": "float32"}, {"name": "Transformer/Layer_0/TransformerLayer/MultiheadAttention/dense_2/kernel", "shape": [100, 100], "dtype": "float32"}, {"name": "Transformer/Layer_0/TransformerLayer/MultiheadAttention/dense_2/bias", "shape": [100], "dtype": "float32"}, {"name": "res_text/EncodeFeature/Transformer/TransformerStack/Layer_0/TransformerLayer/MultiheadAttention/to_3d_2/strided_slice/stack", "shape": [1], "dtype": "int32"}, {"name": "res_text/EncodeFeature/Transformer/TransformerStack/Layer_0/TransformerLayer/MultiheadAttention/to_3d_2/strided_slice/stack_1", "shape": [1], "dtype": "int32"}, {"name": "res_text/EncodeFeature/Transformer/TransformerStack/Layer_0/TransformerLayer/MultiheadAttention/to_3d_2/strided_slice/stack_2", "shape": [1], "dtype": "int32"}, {"name": "res_text/EncodeFeature/Transformer/TransformerStack/Layer_0/TransformerLayer/MultiheadAttention/to_3d_2/Reshape/shape/1", "shape": [], "dtype": "int32"}, {"name": "res_text/EncodeFeature/Transformer/TransformerStack/Layer_0/TransformerLayer/MultiheadAttention/to_3d_2/Reshape/shape/2", "shape": [], "dtype": "int32"}, {"name": "res_text/EncodeFeature/Transformer/TransformerStack/Layer_0/TransformerLayer/MultiheadAttention/split_heads_2/split_last_dimension/strided_slice/stack", "shape": [1], "dtype": "int32"}, {"name": "res_text/EncodeFeature/Transformer/TransformerStack/Layer_0/TransformerLayer/MultiheadAttention/split_heads_2/split_last_dimension/strided_slice/stack_1", "shape": [1], "dtype": "int32"}, {"name": "res_text/EncodeFeature/Transformer/TransformerStack/Layer_0/TransformerLayer/MultiheadAttention/split_heads_2/split_last_dimension/strided_slice/stack_2", "shape": [1], "dtype": "int32"}, {"name": "res_text/EncodeFeature/Transformer/TransformerStack/Layer_0/TransformerLayer/MultiheadAttention/split_heads_2/split_last_dimension/Reshape/shape/1", "shape": [], "dtype": "int32"}, {"name": "res_text/EncodeFeature/Transformer/TransformerStack/Layer_0/TransformerLayer/MultiheadAttention/split_heads_2/split_last_dimension/Reshape/shape/2", "shape": [], "dtype": "int32"}, {"name": "res_text/EncodeFeature/Transformer/TransformerStack/Layer_0/TransformerLayer/MultiheadAttention/split_heads_2/split_last_dimension/Reshape/shape/3", "shape": [], "dtype": "int32"}, {"name": "res_text/EncodeFeature/Transformer/TransformerStack/Layer_0/TransformerLayer/MultiheadAttention/split_heads_2/transpose/perm", "shape": [4], "dtype": "int32"}, {"name": "res_text/EncodeFeature/Transformer/TransformerStack/Layer_0/TransformerLayer/MultiheadAttention/combine_heads/transpose/perm", "shape": [4], "dtype": "int32"}, {"name": "res_text/EncodeFeature/Transformer/TransformerStack/Layer_0/TransformerLayer/MultiheadAttention/to_2d/strided_slice/stack", "shape": [1], "dtype": "int32"}, {"name": "res_text/EncodeFeature/Transformer/TransformerStack/Layer_0/TransformerLayer/MultiheadAttention/to_2d/strided_slice/stack_1", "shape": [1], "dtype": "int32"}, {"name": "res_text/EncodeFeature/Transformer/TransformerStack/Layer_0/TransformerLayer/MultiheadAttention/to_2d/strided_slice/stack_2", "shape": [1], "dtype": "int32"}, {"name": "res_text/EncodeFeature/Transformer/TransformerStack/Layer_0/TransformerLayer/MultiheadAttention/to_2d/mul/y", "shape": [], "dtype": "int32"}, {"name": "res_text/EncodeFeature/Transformer/TransformerStack/Layer_0/TransformerLayer/MultiheadAttention/to_2d/Reshape/shape/1", "shape": [], "dtype": "int32"}, {"name": "Transformer/Layer_0/TransformerLayer/MultiheadAttention/output_transform/kernel", "shape": [100, 120], "dtype": "float32"}, {"name": "Transformer/Layer_0/TransformerLayer/MultiheadAttention/output_transform/bias", "shape": [120], "dtype": "float32"}, {"name": "res_text/EncodeFeature/Transformer/TransformerStack/Layer_0/AddTimingSignal/to_2d/strided_slice/stack", "shape": [1], "dtype": "int32"}, {"name": "res_text/EncodeFeature/Transformer/TransformerStack/Layer_0/AddTimingSignal/to_2d/strided_slice/stack_1", "shape": [1], "dtype": "int32"}, {"name": "res_text/EncodeFeature/Transformer/TransformerStack/Layer_0/AddTimingSignal/to_2d/strided_slice/stack_2", "shape": [1], "dtype": "int32"}, {"name": "res_text/EncodeFeature/Transformer/TransformerStack/Layer_0/AddTimingSignal/to_2d/mul/y", "shape": [], "dtype": "int32"}, {"name": "res_text/EncodeFeature/Transformer/TransformerStack/Layer_0/AddTimingSignal/to_2d/Reshape/shape/1", "shape": [], "dtype": "int32"}, {"name": "res_text/EncodeFeature/Transformer/TransformerStack/Layer_0/AddTimingSignal/range", "shape": [192], "dtype": "int32"}, {"name": "res_text/EncodeFeature/Transformer/TransformerStack/Layer_0/AddTimingSignal/strided_slice/stack", "shape": [1], "dtype": "int32"}, {"name": "res_text/EncodeFeature/Transformer/TransformerStack/Layer_0/AddTimingSignal/strided_slice/stack_1", "shape": [1], "dtype": "int32"}, {"name": "res_text/EncodeFeature/Transformer/TransformerStack/Layer_0/AddTimingSignal/strided_slice/stack_2", "shape": [1], "dtype": "int32"}, {"name": "res_text/EncodeFeature/Transformer/TransformerStack/Layer_0/AddTimingSignal/TimingSignal/ExpandDims/dim", "shape": [], "dtype": "int32"}, {"name": "res_text/EncodeFeature/Transformer/TransformerStack/Layer_0/AddTimingSignal/TimingSignal/ExpandDims_1", "shape": [1, 50], "dtype": "float32"}, {"name": "res_text/EncodeFeature/Transformer/TransformerStack/Layer_0/AddTimingSignal/TimingSignal/concat/axis", "shape": [], "dtype": "int32"}, {"name": "Transformer/Layer_0/TransformerLayer/dense/kernel", "shape": [100, 120], "dtype": "float32"}, {"name": "Transformer/Layer_0/TransformerLayer/dense/bias", "shape": [120], "dtype": "float32"}, {"name": "res_text/EncodeFeature/Transformer/reduce_all_tokens/to_3d/strided_slice/stack", "shape": [1], "dtype": "int32"}, {"name": "res_text/EncodeFeature/Transformer/reduce_all_tokens/to_3d/strided_slice/stack_1", "shape": [1], "dtype": "int32"}, {"name": "res_text/EncodeFeature/Transformer/reduce_all_tokens/to_3d/strided_slice/stack_2", "shape": [1], "dtype": "int32"}, {"name": "res_text/EncodeFeature/Transformer/reduce_all_tokens/to_3d/Reshape/shape/1", "shape": [], "dtype": "int32"}, {"name": "res_text/EncodeFeature/Transformer/reduce_all_tokens/to_3d/Reshape/shape/2", "shape": [], "dtype": "int32"}, {"name": "res_text/EncodeFeature/Transformer/reduce_all_tokens/Sum/reduction_indices", "shape": [], "dtype": "int32"}, {"name": "res_text/EncodeFeature/Transformer/reduce_all_tokens/lengths/Sum/reduction_indices", "shape": [], "dtype": "int32"}, {"name": "res_text/EncodeFeature/Transformer/reduce_all_tokens/Maximum/y", "shape": [], "dtype": "int32"}, {"name": "res_text/EncodeFeature/Transformer/reduce_all_tokens/ExpandDims_1/dim", "shape": [], "dtype": "int32"}, {"name": "res_text/EncodeFeature/embedding_lookup/axis", "shape": [], "dtype": "int32"}, {"name": "res_text/EncodeFeature/Sum/reduction_indices", "shape": [], "dtype": "int32"}, {"name": "res_text/EncodeFeature/NotEqual/y", "shape": [], "dtype": "int32"}, {"name": "res_text/EncodeFeature/ExpandDims/dim", "shape": [], "dtype": "int32"}, {"name": "res_text/EncodeFeature/Sum_1/reduction_indices", "shape": [], "dtype": "int32"}, {"name": "res_text/EncodeFeature/Transformer/concat/axis", "shape": [], "dtype": "int32"}, {"name": "inp_text/res_text/EncodeResult/tanh_layer_0/dense/kernel", "shape": [220, 100], "dtype": "float32"}, {"name": "inp_text/res_text/EncodeResult/tanh_layer_0/dense/bias", "shape": [100], "dtype": "float32"}, {"name": "inp_text/res_text/EncodeResult/tanh_layer_1/dense/kernel", "shape": [100, 100], "dtype": "float32"}, {"name": "inp_text/res_text/EncodeResult/tanh_layer_1/dense/bias", "shape": [100], "dtype": "float32"}, {"name": "inp_text/res_text/EncodeResult/tanh_layer_2/dense/kernel", "shape": [100, 100], "dtype": "float32"}, {"name": "inp_text/res_text/EncodeResult/tanh_layer_2/dense/bias", "shape": [100], "dtype": "float32"}, {"name": "Embeddings", "shape": [8192, 100], "dtype": "float32"}, {"name": "res_context/EncodeFeature/embedding_lookup/axis", "shape": [], "dtype": "int32"}, {"name": "res_context/EncodeFeature/Sum/reduction_indices", "shape": [], "dtype": "int32"}, {"name": "res_context/EncodeFeature/NotEqual/y", "shape": [], "dtype": "int32"}, {"name": "res_context/EncodeFeature/ExpandDims/dim", "shape": [], "dtype": "int32"}, {"name": "res_context/EncodeFeature/Sum_1/reduction_indices", "shape": [], "dtype": "int32"}, {"name": "inp_text/res_context/EncodeResult/tanh_layer_0/dense/kernel", "shape": [100, 100], "dtype": "float32"}, {"name": "inp_text/res_context/EncodeResult/tanh_layer_0/dense/bias", "shape": [100], "dtype": "float32"}, {"name": "inp_text/res_context/EncodeResult/tanh_layer_1/dense/kernel", "shape": [100, 100], "dtype": "float32"}, {"name": "inp_text/res_context/EncodeResult/tanh_layer_1/dense/bias", "shape": [100], "dtype": "float32"}, {"name": "inp_text/res_context/EncodeResult/tanh_layer_2/dense/kernel", "shape": [100, 100], "dtype": "float32"}, {"name": "inp_text/res_context/EncodeResult/tanh_layer_2/dense/bias", "shape": [100], "dtype": "float32"}, {"name": "Final/CombineFeatureEncodings/Mean/reduction_indices", "shape": [1], "dtype": "int32"}, {"name": "Final/EncodeResult/tanh_layer_0/dense/kernel", "shape": [100, 100], "dtype": "float32"}, {"name": "Final/EncodeResult/tanh_layer_0/dense/bias", "shape": [100], "dtype": "float32"}, {"name": "Final/EncodeResult/tanh_layer_1/dense/kernel", "shape": [100, 100], "dtype": "float32"}, {"name": "Final/EncodeResult/tanh_layer_1/dense/bias", "shape": [100], "dtype": "float32"}, {"name": "Final/EncodeResult/tanh_layer_2/dense/kernel", "shape": [100, 100], "dtype": "float32"}, {"name": "Final/EncodeResult/tanh_layer_2/dense/bias", "shape": [100], "dtype": "float32"}, {"name": "ConstantFolding/inp_text/EncodeFeature/Transformer/TransformerStack/Layer_0/AddTimingSignal/Tile/multiples_const_axis", "shape": [], "dtype": "int32"}, {"name": "ConstantFolding/res_text/EncodeFeature/Transformer/TransformerStack/Layer_0/AddTimingSignal/Tile/multiples_const_axis", "shape": [], "dtype": "int32"}]}]}